trained_models/MiniGrid-LavaLawnS64-v0/model.pt (torch, 993080 bytes, 73 tensors)

theta f4 [4, 64, 64]
0	0x3f800000	1.0
1	0x3f800000	1.0
2	0x3f800000	1.0
3	0x3f800000	1.0
4	0x3f800000	1.0
5	0x3f800000	1.0
6	0x3f800000	1.0
7	0x3f800000	1.0
8	0x3f800000	1.0
9	0x3f800000	1.0
10	0x3f800000	1.0
11	0x3f800000	1.0
12	0x3f800000	1.0
13	0x3f800000	1.0
14	0x3f800000	1.0
15	0x3f800000	1.0
16	0x3f800000	1.0
17	0x3f800000	1.0
18	0x3f800000	1.0
19	0x3f800000	1.0
20	0x3f800000	1.0
21	0x3f800000	1.0
22	0x3f800000	1.0
23	0x3f800000	1.0
24	0x3f800000	1.0
25	0x3f800000	1.0
26	0x3f800000	1.0
27	0x3f800000	1.0
28	0x3f800000	1.0
29	0x3f800000	1.0
30	0x3f800000	1.0
31	0x3f800000	1.0
32	0x3f800000	1.0
33	0x3f800000	1.0
34	0x3f800000	1.0
35	0x3f800000	1.0
36	0x3f800000	1.0
37	0x3f800000	1.0
38	0x3f800000	1.0
39	0x3f800000	1.0
40	0x3f800000	1.0
41	0x3f800000	1.0
42	0x3f800000	1.0
43	0x3f800000	1.0
44	0x3f800000	1.0
45	0x3f800000	1.0
46	0x3f800000	1.0
47	0x3f800000	1.0
48	0x3f800000	1.0
49	0x3f800000	1.0
50	0x3f800000	1.0
51	0x3f800000	1.0
52	0x3f800000	1.0
53	0x3f800000	1.0
54	0x3f800000	1.0
55	0x3f800000	1.0
56	0x3f800000	1.0
57	0x3f800000	1.0
58	0x3f800000	1.0
59	0x3f800000	1.0
60	0x3f800000	1.0
61	0x3f800000	1.0
62	0x3f800000	1.0
63	0x3f800000	1.0
64	0x3f800000	1.0
65	0x3f55e390	0.8355036
66	0x3ef78fca	0.4835189
67	0x3f54777c	0.8299482
68	0x3f204aa1	0.62613875
69	0x3f8a8009	1.0820323
70	0x3f93b778	1.1540365
71	0x3fc26a00	1.5188599
72	0x3f608b34	0.8771241
73	0x3ebce562	0.36893755
74	0x3f731e11	0.9496775
75	0x3f28ae5e	0.65891063
76	0x3f4fbfe4	0.81152177
77	0x3f144c33	0.5792877
78	0x3f329052	0.69751465
79	0x3ea687a3	0.32525358
80	0x3f4f158f	0.8089227
81	0x3ef0eed6	0.47057217
82	0x3eee32fc	0.46523273
83	0x3fa885ef	1.3165873
84	0x3fa723c1	1.3057786
85	0x3fcb2976	1.5872028
86	0x3fcf22ba	1.6182473
87	0x3fbe8c11	1.4886495
88	0x3fd79250	1.6841526
89	0x3f627006	0.88452184
90	0x3f1c4ab4	0.6105149
91	0x3f6fca8e	0.9366845
92	0x3f369bb3	0.7133133
93	0x3ec662d6	0.3874728
94	0x3f1e74d8	0.6189704
95	0x4005c8f4	2.0903902
96	0x3efecc0a	0.49765044
97	0x3f086f8d	0.53295213
98	0x3f81d45f	1.0142936
99	0x3fad045e	1.3516958
100	0x3ecf018d	0.4043087
101	0x3f0bc197	0.5459227
102	0x3f4acde9	0.79220444
103	0x3fdba2f7	1.7159108
104	0x3f4b300f	0.79370207
105	0x3f9909ed	1.1956154
106	0x3fb73adf	1.4314841
107	0x3ecdef65	0.40221706
108	0x3f4dbe5e	0.803686
109	0x3fa480be	1.2851789
110	0x3f6537a9	0.89538056
111	0x3e876f18	0.26451945
112	0x3fba6d21	1.4564553
113	0x3f50c158	0.8154502
114	0x3fa0b914	1.2556481
115	0x3ed7c5a0	0.42142963
116	0x3f35884e	0.7091111
117	0x3eba96cf	0.36443183
118	0x3e81dc72	0.253635
119	0x3fba1763	1.4538387
120	0x3fd5726d	1.6675545
121	0x3f5cd172	0.8625709
122	0x3edddedf	0.433341
123	0x3f14fe0e	0.58200157
124	0x3f9f6f71	1.2455884
125	0x3f0aac54	0.541692
126	0x3f2e0454	0.67975354
127	0x3f800000	1.0
128	0x3f800000	1.0
129	0x3f56319a	0.83669436
130	0x3f13b9bd	0.5770529
131	0x3f1a3728	0.6024041
132	0x3fd789b0	1.6838894
133	0x3edfa78a	0.4368251
134	0x3fa909a0	1.3206062
135	0x3f1c8801	0.61145025
136	0x3f289076	0.6584543
137	0x4002802a	2.0390725
138	0x3ebaaaa9	0.36458328
139	0x3edbd540	0.42936134
140	0x3eb4ef4c	0.3533882
141	0x3fa659dc	1.2996173
142	0x3f8a33f5	1.0797106
143	0x3f50c5ec	0.81552005
144	0x3efd43c1	0.49465755
145	0x3f982422	1.1886027
146	0x3f74a432	0.9556304
147	0x3eb0754b	0.34464487
148	0x3f496170	0.786643
149	0x3faa6feb	1.3315405
150	0x3eebc574	0.46049082
151	0x3fd96466	1.6983764
152	0x3f86252d	1.0480095
153	0x3faf03df	1.3673056
154	0x3f42aef9	0.7604824
155	0x3ee1b693	0.44084606
156	0x3f883d3a	1.0643685
157	0x3f56da98	0.839273
158	0x3f833dc7	1.0253228
159	0x3f83e078	1.0302877
160	0x3fc7412c	1.5566764
161	0x3ef0075e	0.4688062
162	0x3f58b31c	0.846483
163	0x3f082de2	0.5319501
164	0x3f522e59	0.8210197
165	0x3fc35fb1	1.5263578
166	0x3f293e03	0.6611025
167	0x3f0ac7e6	0.5421127
168	0x3faf7b7e	1.3709562
169	0x3f039c3b	0.51410264
170	0x3f669326	0.9006828
171	0x3f1cf08c	0.61304545
172	0x3fad2664	1.3527341
173	0x3f7d1d87	0.9887318
174	0x3e8dc74d	0.27691117
175	0x3f6250db	0.88404626
176	0x3f1861f3	0.5952446
177	0x3fcd7274	1.6050553
178	0x3f7d1611	0.98861796
179	0x3fa4aa2e	1.2864435
180	0x3f1a282f	0.60217565
181	0x3fb7efc5	1.4370047
182	0x3f1b1af3	0.60587996
183	0x3fa5ab1b	1.2942842
184	0x3f3d22e5	0.7388137
185	0x3f386174	0.720237
186	0x3f961d45	1.1727682
187	0x3f353415	0.70782596
188	0x3efac39d	0.48977366
189	0x3f238e50	0.63889027
190	0x3f85eeac	1.0463462
191	0x3f800000	1.0
192	0x3f800000	1.0
193	0x3fa3ceb5	1.2797457
194	0x3ee2840a	0.44241363
195	0x3f997cf1	1.1991254
196	0x3ea62777	0.32451984
197	0x3fbc74ab	1.4723104
198	0x3f6b6b7b	0.9196088
199	0x3faf62a6	1.370198
200	0x3f119d15	0.56880313
201	0x3f70256b	0.93807095
202	0x3f68ea4d	0.90982515
203	0x3f9db204	1.2319951
204	0x3f96d88a	1.1784832
205	0x3f8948b8	1.0725317
206	0x3f2a82c9	0.6660581
207	0x3f9fc1a2	1.2480967
208	0x3f323bde	0.696226
209	0x3f364031	0.711917
210	0x3f27cad6	0.6554388
211	0x3fbf7d31	1.496008
212	0x3efbf84d	0.49212876
213	0x3e98d8ee	0.29853004
214	0x3f9fede9	1.249448
215	0x3fb61cf1	1.4227582
216	0x3ee5c544	0.44877064
217	0x3fa896ad	1.3170983
218	0x4002b992	2.0425763
219	0x3ffadc09	1.9598399
220	0x3fd2644b	1.6436857
221	0x3fcc711e	1.5972021
222	0x3fa6af90	1.3022327
223	0x3fbe3243	1.4859089
224	0x3fa05be7	1.2528046
225	0x3f9d2a66	1.2278564
226	0x3f33bfeb	0.7021472
227	0x3fd28146	1.6445701
228	0x3f91a8d9	1.1379653
229	0x3fcc5790	1.5964222
230	0x3fdfde8c	1.7489791
231	0x3f9c3bd5	1.2205759
232	0x3ec5b58d	0.38615075
233	0x3f4168ed	0.7555073
234	0x3f595740	0.8489876
235	0x3f97b9f1	1.185362
236	0x3f8b9bd5	1.0906931
237	0x3fb09b4d	1.3797394
238	0x3fb1f04e	1.390146
239	0x3f2e40ea	0.680678
240	0x3e92cb33	0.28670654
241	0x3f68d41e	0.90948665
242	0x3fd239ff	1.6423949
243	0x3faa8804	1.3322759
244	0x3fd7da55	1.6863505
245	0x3ef95996	0.4870116
246	0x3e83dca8	0.25754285
247	0x3f3e79cb	0.7440459
248	0x3ed83419	0.42227247
249	0x3f244ae7	0.6417679
250	0x3f22bffd	0.635742
251	0x3f78b8ba	0.9715687
252	0x3ecc6d14	0.3992697
253	0x3f358a5f	0.7091426
254	0x3fad9ab9	1.3562843
255	0x3f800000	1.0

encoder_conv_00.0.weight f4 [32, 4, 3, 3]
0	0x3e4f5b12	0.20249584
1	0xbe3517c9	-0.17684855
2	0x3e38eaf9	0.18058385
3	0x3e3fc2df	0.18726681
4	0x3befecba	0.007321921
5	0xbe8bbbdc	-0.27291763
6	0xbc0b0200	-0.008484364
7	0xbe476220	-0.19471025
8	0x3d9906a1	0.074719675
9	0xbe060698	-0.13088453
10	0x3e973bc3	0.29537782
11	0x3e241fa2	0.16027692
12	0x3e3b3d6c	0.1828515
13	0x3dc313f9	0.09525294
14	0x3dfedbcf	0.12444269
15	0xbe5628c5	-0.2091399
16	0x3e1dd365	0.15412672
17	0x3df37f46	0.1188951
18	0x3d098d31	0.033581916
19	0x3e3252e4	0.17414433
20	0xbe53328b	-0.2062475
21	0xbae9f34f	-0.0017849001
22	0x3e9bb575	0.30411878
23	0x3babee99	0.005246949
24	0x3e331b7d	0.17490955
25	0xbcd66743	-0.026172286
26	0x3e04139a	0.12898102
27	0x3e270852	0.16311768
28	0xbde754b3	-0.11295452
29	0xbe76420f	-0.24048637
30	0xbb7ddcf9	-0.0038736446
31	0xbe9ab50b	-0.3021625
32	0x3e9d6f74	0.30749094
33	0xbde8d52e	-0.11368786
34	0x3bc924cf	0.006138421
35	0xbe494104	-0.19653708
36	0x3dca14ee	0.09867273
37	0x3e053395	0.13007958
38	0x3dfd514f	0.12369024
39	0xbe7dd2ea	-0.24787489
40	0x3de10851	0.10987914
41	0xbcd264f8	-0.025682911
42	0xba1848ca	-0.0005809186
43	0x3e7442c5	0.23853596
44	0x3bac3b09	0.005256061
45	0x3e6a6fd6	0.22894225
46	0x3dd752f9	0.10513873
47	0x3ebb9d3c	0.36643398
48	0xbe1f364a	-0.15548053
49	0xbd0c60b2	-0.034271903
50	0x3b838ca2	0.0040145675
51	0x3dc3852f	0.09546887
52	0x3e141afa	0.14463416
53	0x3dc6577a	0.096846536
54	0xbdbe3a2a	-0.09288438
55	0x3d389f80	0.045073986
56	0xbc9a0ca1	-0.01880485
57	0x3ed7b973	0.42133674
58	0xbd99cb2a	-0.075094536
59	0xbe56033f	-0.20899676
60	0xbdd67efa	-0.104734376
61	0xbe7e75e8	-0.24849665
62	0x3b9953ef	0.004679195
63	0xbd52bee1	-0.051451568
64	0x3e797b34	0.24363405
65	0xbea5a0c2	-0.3234921
66	0xbde4f083	-0.111786865
67	0xbcfef854	-0.031124271
68	0xbde80f7f	-0.11331081
69	0x3c5b027b	0.013367291
70	0xbed58d9d	-0.41709605
71	0x3e9f9ede	0.31175894
72	0xbe85f1b2	-0.2616096
73	0x3d6f0371	0.05835289
74	0xbe50c55d	-0.20387788
75	0x3d807c0e	0.062736616
76	0x3dae04ac	0.08496985
77	0xbdeeb59e	-0.116557345
78	0x3cc72f89	0.024314659
79	0x3c205ce4	0.009787772
80	0x3d49aefe	0.04923915
81	0x3e42a756	0.19009146
82	0x3ce75e00	0.028243065
83	0x3dd42fef	0.10360705
84	0x3e544be9	0.20732082
85	0xbe64efaf	-0.22357057
86	0x3e61f6cd	0.22066803
87	0xbe449608	-0.19197857
88	0xbd6ef58b	-0.058339637
89	0x3ddb078f	0.10694801
90	0x3e4e71ac	0.2016055
91	0xbd32bb37	-0.043635573
92	0xbe226e91	-0.1586249
93	0x3db4c681	0.08826924
94	0xbe08a8ac	-0.13345593
95	0x3eac2209	0.33619717
96	0x3e1a37ab	0.15060298
97	0xbe1fa383	-0.15589719
98	0xbee24e79	-0.44200495
99	0xbd0750fc	-0.033036217
100	0xbd414d75	-0.04719301
101	0xbe3be7d9	-0.18350162
102	0xbe855eff	-0.2604904
103	0x3dd732e8	0.105077565
104	0xbe6c09a1	-0.23050548
105	0x3e266dd5	0.16252835
106	0x3e83c767	0.2573807
107	0x3e81ea1f	0.25373933
108	0x3dcad48a	0.0990382
109	0x3de21104	0.11038402
110	0x3d5dc2f9	0.05414102
111	0x3dbecb5e	0.09316133
112	0xbdb54e56	-0.08852832
113	0xbe5f79e1	-0.21823837
114	0xbdc22af5	-0.0948085
115	0xbd84e664	-0.06489256
116	0xbe8ee9da	-0.2791279
117	0x3eb653b7	0.35610744
118	0xbe32e888	-0.17471516
119	0xbe03cf97	-0.12872158
120	0x3e0753d7	0.13215576
121	0xbe280fe2	-0.16412309
122	0xbd05e70a	-0.03269104
123	0x3bf81fb1	0.0075721373
124	0xbd3afe06	-0.045652412
125	0x3db30fac	0.087432235
126	0xbe19a73f	-0.15005206
127	0x3dfcfb91	0.1235267
128	0x3e1735d9	0.14766635
129	0xbdc51dc4	-0.09624818
130	0x3e95557c	0.29166782
131	0xbe61eae5	-0.22062261
132	0xbe551608	-0.20809186
133	0x3e4f75e0	0.2025981
134	0x3e8514ed	0.25992528
135	0xbd6fb3d4	-0.058521107
136	0xbdb94e64	-0.09048155
137	0xbbedec41	-0.0072608297
138	0xbd6ee71c	-0.05832587
139	0x3db40340	0.087896824
140	0x3e738f37	0.23785101
141	0x3eb9e8e8	0.36310506
142	0x3ea106b2	0.3145042
143	0x3dffe316	0.12494485
144	0xbe205b9b	-0.15659945
145	0x3e1ff5a6	0.15621051
146	0x3e264325	0.16236551
147	0x3c069abc	0.0082156025
148	0xbd101f0a	-0.03518585
149	0x3d96cbc5	0.07363085
150	0xbe155058	-0.1458143
151	0xbe5d9ca8	-0.21641791
152	0xbe32abab	-0.17448299
153	0x3e2d666f	0.16933607
154	0xbea4786e	-0.3212313
155	0xbe9179ca	-0.2841323
156	0xbdfe0e5e	-0.12405084
157	0x3c946012	0.018112216
158	0x3dcb8f86	0.09939484
159	0x3e4d27d5	0.20034726
160	0x3eb42c60	0.35190105
161	0x3d9dbf7c	0.07702538
162	0x3e98a490	0.2981305
163	0x3cb24754	0.021762528
164	0xbd944866	-0.072403714
165	0x3e01fcd7	0.12694107
166	0x3cf8b7f8	0.03036116
167	0x3d7d4e12	0.06184203
168	0x3eb93150	0.36170435
169	0x3df7c0a6	0.12097292
170	0x3e167426	0.14692745
171	0x3e31835b	0.17335264
172	0xbd5495e3	-0.051900756
173	0xbd0f4fab	-0.034988087
174	0x3dbd820a	0.092533186
175	0xbe161bab	-0.14658992
176	0x3e40e3dd	0.18836923
177	0xbe1d3e7c	-0.15355867
178	0x3d95288b	0.072831236
179	0x3d8c8f9f	0.06863331
180	0x3e80bce7	0.2514412
181	0x3d132c32	0.03593082
182	0x3cefdd65	0.029280374
183	0xbe73da04	-0.23813635
184	0x3d474c8a	0.048656978
185	0xbcfc3822	-0.030788485
186	0xbe256566	-0.16151962
187	0x3e08f3c2	0.13374236
188	0x3d8bd766	0.06828193
189	0x3e5cfe66	0.2158142
190	0x3e82455b	0.2544354
191	0xbcc329a8	-0.023823574
192	0x3e137eee	0.14403889
193	0x3daa73f8	0.083229005
194	0x3e44b0a8	0.19208014
195	0x3e0cc4f0	0.13747
196	0xbda30c87	-0.07961374
197	0x3d3bb603	0.045827877
198	0xbe6654b0	-0.22493243
199	0xbe55e20c	-0.20887011
200	0x3e629a96	0.22129282
201	0x3e90ebc0	0.28304863
202	0xbc561716	-0.013067028
203	0xbe9c2498	-0.3049667
204	0x3dc6b8e0	0.09703231
205	0x3e6f6d92	0.23381642
206	0xbd26b1d2	-0.040696926
207	0x3c62ced0	0.013843253
208	0xbe42bcc6	-0.19017324
209	0x3e1fd368	0.15607989
210	0x3cb6e78e	0.02232721
211	0xbde42847	-0.11140495
212	0x3eb6a25d	0.35670748
213	0x3eaac5f1	0.33354142
214	0xbe5009e8	-0.20316279
215	0xbda9d48b	-0.082924925
216	0xbd01ed36	-0.031720363
217	0xbe0d599d	-0.13803716
218	0xbe43c144	-0.19116694
219	0x3dd9cb97	0.10634535
220	0x3e105b1a	0.14097252
221	0x3da79d67	0.08184319
222	0xbdf58421	-0.11988092
223	0xbde6e3d9	-0.11273927
224	0xbe7d0c2a	-0.24711671
225	0xbe2e5877	-0.17025934
226	0x3cd03dc2	0.025420073
227	0xbe3c7a89	-0.18406118
228	0x3eaf4e8b	0.3423961
229	0xbe65b358	-0.22431695
230	0xbe868b0d	-0.26277962
231	0xbdc30c61	-0.095238455
232	0xbd3d14d1	-0.04616243
233	0x3d4fc055	0.05072053
234	0xbd941c96	-0.07232015
235	0x3e0cf7f1	0.13766457
236	0xbd7e128e	-0.062029414
237	0xbcbadbca	-0.022809882
238	0x3e09abba	0.13444415
239	0xbe598b84	-0.21244627
240	0x3e492b13	0.19645338
241	0xbea1db8a	-0.31612808
242	0x3e07e6b7	0.13271604
243	0x3df56056	0.11981265
244	0xbeae8dbb	-0.34092507
245	0xbeab9929	-0.3351529
246	0xbe48a085	-0.19592483
247	0xbd019834	-0.031639293
248	0x3df536c4	0.11973336
249	0x3c830bde	0.01599687
250	0x3e8b656f	0.27225825
251	0xbe30cec8	-0.17266381
252	0xbe3d4f05	-0.18487175
253	0xbcce0b53	-0.025151884
254	0xbe6c76a6	-0.23092136
255	0x3e7dbdd2	0.24779442

encoder_conv_00.0.bias f4 [32]
0	0xbe8cdb32	-0.27510983
1	0xbdef914d	-0.11697636
2	0xbd6edf29	-0.05831829
3	0xbe328e9a	-0.1743721
4	0xbea41629	-0.32048157
5	0xbcda089d	-0.026615435
6	0x3e9962f3	0.29958305
7	0xbd39f794	-0.045402125
8	0xbe8021f6	-0.2502591
9	0xbd26d46a	-0.040729918
10	0xbe6962d4	-0.22791606
11	0xbdc38d06	-0.095483825
12	0x3e141f01	0.14464952
13	0xbe344cb7	-0.1760739
14	0x3e4626a6	0.1935068
15	0xbd7b28b1	-0.061318103
16	0xbd75fab5	-0.060053546
17	0x3e4c4caa	0.1995112
18	0xbd90c24f	-0.070683114
19	0xbe6f1110	-0.23346353
20	0xbb9b3ce0	-0.0047374815
21	0xbea4338e	-0.32070583
22	0xbe111392	-0.14167622
23	0xbcddcd75	-0.027075509
24	0x3e68e011	0.22741725
25	0x3e1922bb	0.14954655
26	0xbd2ae0c5	-0.041718263
27	0x3e19f00a	0.15032974
28	0xbbb69a83	-0.0055726185
29	0xbdbf6890	-0.093461156
30	0x3e063aa8	0.13108313
31	0xbdffae03	-0.12484362

encoder_conv_00.1.weight f4 [32]
0	0x3f9f53bf	1.2447432
1	0x3f44df48	0.769032
2	0x3f8e2154	1.1103921
3	0x3f893b98	1.0721312
4	0x3f99d85c	1.2019153
5	0x3f781866	0.9691223
6	0x3f872d24	1.0560651
7	0x3f9b73ec	1.2144752
8	0x3f8f0bcc	1.1175475
9	0x3f9c339e	1.2203252
10	0x3f5bdb48	0.8588147
11	0x3f875d11	1.0575277
12	0x3f7782e1	0.9668408
13	0x3f6fbf89	0.93651634
14	0x3fb71bfe	1.4305418
15	0x3f9bfcb2	1.2186491
16	0x3facd29c	1.3501773
17	0x3fa12b31	1.2591306
18	0x3fb8bb56	1.443217
19	0x3f1b007f	0.6054763
20	0x3f33cca1	0.70234114
21	0x3f859320	1.0435524
22	0x3f752a80	0.95767975
23	0x3fb62aa3	1.4231762
24	0x3f412066	0.7544006
25	0x3f37e506	0.7183384
26	0x3f67de00	0.9057312
27	0x3f5b01c2	0.8554956
28	0x3f433183	0.76247424
29	0x3f509e49	0.81491524
30	0x3fa12fa2	1.2592661
31	0x3f7e9ee1	0.9946118

encoder_conv_00.1.bias f4 [32]
0	0x3eadb462	0.33926684
1	0xbed578c3	-0.41693696
2	0x3e823651	0.25432065
3	0x3e817aa9	0.25288895
4	0x3e8df4f2	0.2772594
5	0x3e595ab8	0.21226013
6	0xbdc2b218	-0.09506625
7	0x3ec09a28	0.37617612
8	0xbea5ff04	-0.32421124
9	0x3e72a56d	0.23695917
10	0xbe88caba	-0.26717168
11	0x3ef7d0e4	0.48401558
12	0xbe93394a	-0.28754646
13	0xbe2b98d7	-0.16757523
14	0x3e8612fc	0.2618636
15	0x3e231581	0.15926172
16	0x3d8b04c6	0.0678802
17	0x3e5ba757	0.21450554
18	0x3d0b0384	0.0339389
19	0xbf210c79	-0.62909657
20	0xbea760af	-0.3269095
21	0xbe479128	-0.19488966
22	0x3e83dc4b	0.25754008
23	0x3e515a75	0.20444663
24	0xbeb27aa0	-0.3485918
25	0xbee324bb	-0.4436396
26	0xbe82e48e	-0.25564998
27	0xbd511b9e	-0.05105173
28	0xbe03b6b5	-0.12862666
29	0x3f275fb2	0.65380394
30	0x3d35deb9	0.044401858
31	0xbe4f8800	-0.20266724

encoder_conv_00.1.running_mean f4 [32]
0	0xbd8d76fb	-0.06907459
1	0x3cc1a3e4	0.02363772
2	0xbda7f31c	-0.08200666
3	0x3c9f2a6b	0.019429406
4	0xbd8a1e9e	-0.06744121
5	0x3ea0e359	0.31423452
6	0xbdf75b08	-0.1207791
7	0xbc9f494c	-0.01944413
8	0xbec53a51	-0.38521054
9	0x3d386c02	0.04502488
10	0xbe2b4e71	-0.16729142
11	0xbebb8d4f	-0.36631247
12	0xbd01b687	-0.031668212
13	0xbe92bdb4	-0.28660357
14	0x3d044a92	0.03229768
15	0xbe65a68c	-0.22426814
16	0x3ea9f4b2	0.331945
17	0xbd8e5b57	-0.069510154
18	0xbe92e88e	-0.2869305
19	0xbf3c10cf	-0.7346315
20	0x3cad7159	0.021172212
21	0xbee1f870	-0.44134855
22	0x3e2e3d69	0.17015614
23	0xbe3443ca	-0.17603984
24	0xbe680e15	-0.22661622
25	0x3e00cebf	0.12578867
26	0xbf156d6a	-0.5837008
27	0xbd0dc618	-0.034612745
28	0xbd505d4d	-0.05087023
29	0x3edab360	0.42714977
30	0x3e43b463	0.19111781
31	0xbee85382	-0.4537621

encoder_conv_00.1.running_var f4 [32]
0	0x3be40aec	0.00695931
1	0x3bffd9dd	0.0078079537
2	0x3bec6319	0.007213962
3	0x3cada625	0.021197388
4	0x3cb4cad6	0.022069376
5	0x3bffa5c5	0.0078017437
6	0x3bcac8e2	0.006188498
7	0x3c107a6a	0.008818248
8	0x3b918acb	0.0044415942
9	0x3c9a9c22	0.018873278
10	0x3baea18d	0.005329317
11	0x3b6a5dcb	0.0035761471
12	0x3bb0af6e	0.0053920066
13	0x3c0fef6d	0.008785111
14	0x3c63317b	0.0138667775
15	0x3bd9dc4f	0.0066485773
16	0x3c8140e1	0.015778007
17	0x3c1ac097	0.009445331
18	0x3cbd27d5	0.023090282
19	0x3c640077	0.013916126
20	0x3b818666	0.003952789
21	0x3b2ef43b	0.0026695866
22	0x3c0212c5	0.007939045
23	0x3c105a84	0.008810643
24	0x3c07457c	0.008256312
25	0x3bf7b091	0.00755889
26	0x3c1dd3a8	0.009632982
27	0x3b935243	0.0044958903
28	0x3bb82eef	0.0056208293
29	0x3bb3c4ed	0.005486122
30	0x3c8f1065	0.017463872
31	0x3bbfe79d	0.005856468

encoder_conv_01.0.weight f4 [32, 32, 3, 3]
0	0xbe6ba752	-0.23013046
1	0x3c903e94	0.017607965
2	0xbceb05da	-0.028689314
3	0xbd639a06	-0.05556681
4	0xbbceaca7	-0.006307203
5	0x3e5ea189	0.21741308
6	0x3e6e6930	0.23282313
7	0xbe16e3d0	-0.14735341
8	0xbe487643	-0.19576363
9	0x3dd7fa30	0.10545766
10	0x3e680c4f	0.22660945
11	0x3e1b4fea	0.15167204
12	0xbdd2c035	-0.10290567
13	0x3d3a190d	0.045434047
14	0xbdd537b8	-0.10411018
15	0xbd492974	-0.0491118
16	0x3d9ecb29	0.077535935
17	0x3c2dc6bb	0.010606463
18	0x3d709a61	0.058740977
19	0xbd875bbe	-0.06609295
20	0x3e680c26	0.22660884
21	0x3d1b51e5	0.037919898
22	0xbdab50a1	-0.08364988
23	0xbd166fd6	-0.03672775
24	0xbe6a5652	-0.22884491
25	0x3b56f4fd	0.0032799833
26	0xbe71db33	-0.23618774
27	0xbea5495e	-0.32282537
28	0xbd661db4	-0.05618067
29	0xbdcadab3	-0.09904995
30	0x3e0c657c	0.13710588
31	0x3da179b6	0.07884543
32	0x3e09b35c	0.13447326
33	0xbe7d35eb	-0.247276
34	0xbe07b0a2	-0.13250974
35	0xbc03be22	-0.008040937
36	0xbd0b4502	-0.034001358
37	0xbe34126e	-0.17585155
38	0x3e54d744	0.20785242
39	0xbd4855b1	-0.048909847
40	0x3e36e6d9	0.17861499
41	0x3e3733e4	0.17890888
42	0xbdc67066	-0.09689407
43	0x3df4583c	0.11930892
44	0xbc150018	-0.009094261
45	0xbe2a28a8	-0.16617072
46	0x3e57ca47	0.21073256
47	0xbe040811	-0.12893702
48	0xbe924341	-0.28566936
49	0x3b6b084b	0.0035863097
50	0xbd2af58a	-0.04173807
51	0xbe21585c	-0.15756363
52	0x3d5ac1f3	0.05340762
53	0x3e748e1a	0.23882332
54	0xbe3bbb03	-0.18333058
55	0x3e1b86ec	0.15188187
56	0x3e444741	0.19167806
57	0x3d9b39d4	0.07579389
58	0x3d741626	0.059591435
59	0xbe14caa2	-0.14530423
60	0xbd51e4af	-0.05124348
61	0xbde162ee	-0.110051975
62	0x3e57fab3	0.21091728
63	0xbe249e2b	-0.16075961
64	0xbdc70759	-0.09718198
65	0xbdebb43c	-0.11508986
66	0x3e038c1b	0.12846415
67	0x3dc4f613	0.096172474
68	0x3dd6d35d	0.10489533
69	0xbda8de72	-0.08245553
70	0xbca02a81	-0.019551517
71	0xbdfdcbc2	-0.12392379
72	0x3da9232c	0.08258662
73	0xbe5472d0	-0.20746922
74	0x3d7f7118	0.062363714
75	0xbe954b05	-0.29158798
76	0x3dc67429	0.096901245
77	0x3e50ce86	0.20391282
78	0xbdc502e8	-0.09619695
79	0xbdbe4364	-0.092901975
80	0xbe097175	-0.13422187
81	0xbe59155e	-0.21199557
82	0xbe72090b	-0.23636262
83	0x3deb3ef2	0.11486615
84	0x3d3b0735	0.04566117
85	0xbcfa2101	-0.030533316
86	0xbe3e3e4f	-0.18578456
87	0xbe58cf7a	-0.21172896
88	0xbe98ea55	-0.2986628
89	0x3d2aacfc	0.041668877
90	0x3d3f4b56	0.046702705
91	0xbe370f9c	-0.17877048
92	0xbe1c8008	-0.15283215
93	0x3cc73c78	0.024320826
94	0xbc8c5b7c	-0.017133467
95	0x3e4c51e9	0.19953121
96	0x3dcb73b6	0.099341795
97	0xbd843dbf	-0.0645709
98	0xbda21770	-0.079146266
99	0x3d983724	0.07432392
100	0xbcf27204	-0.029595383
101	0x3d462e23	0.048383843
102	0x3d9853e5	0.074378766
103	0xbc88421e	-0.01663309
104	0xbe52c54c	-0.20583075
105	0x3da5e370	0.08100021
106	0xbdd72da0	-0.10506749
107	0x3e4af1c4	0.19818789
108	0xbddaa1e9	-0.10675413
109	0xbe5a9eb9	-0.2134961
110	0x3ee5a5c7	0.4485304
111	0xbd08d94d	-0.03341036
112	0x3dd06634	0.10175744
113	0xbc829b2d	-0.015943134
114	0x3e7e7218	0.24848211
115	0xbe9f74c6	-0.3114378
116	0x3d8161e2	0.06317498
117	0x3e4e57a6	0.20150623
118	0xbd18395c	-0.037164077
119	0x3e98701d	0.29773036
120	0xbe3e988d	-0.18612881
121	0xbe1c3f79	-0.15258588
122	0xbda1b1f4	-0.0789527
123	0x3b2d719e	0.0026465426
124	0xbad0e025	-0.0015935941
125	0x3c86ef44	0.016471513
126	0x3e4a492f	0.1975448
127	0x3d8076b3	0.0627264
128	0xbe77361f	-0.2414174
129	0xbd854326	-0.06506948
130	0xbe37b2a6	-0.17939243
131	0x3e3f3741	0.18673421
132	0x3c96410f	0.01834157
133	0x3e75361b	0.23946421
134	0xbd817a8b	-0.06322201
135	0xbc8146a2	-0.01578075
136	0x3da713a4	0.08158043
137	0xbe159cb1	-0.14610554
138	0xbdd59d20	-0.1043036
139	0x3d55e4c7	0.052220132
140	0x3e8e707c	0.27820194
141	0xbd8f0b8f	-0.069846265
142	0xbc85bb38	-0.016324624
143	0x3e31e9ea	0.17374387
144	0x3d7f25f2	0.062292047
145	0x3e29caa9	0.16581215
146	0xbd6a4d3d	-0.057202566
147	0xbd28094d	-0.041024495
148	0x3d964739	0.073378034
149	0x3b59ca08	0.0033231992
150	0xbd8b2340	-0.06793833
151	0x3e4f5120	0.2024579
152	0xbde96128	-0.11395484
153	0xbc42e116	-0.011894485
154	0xbd9c31df	-0.076267
155	0x3e236c07	0.15959178
156	0x3e18379c	0.14864963
157	0x3c3c3d31	0.011489199
158	0x3e9120eb	0.28345427
159	0x3d90091a	0.07032986
160	0x3dffad81	0.12484265
161	0xbe3fe842	-0.18740943
162	0x3da68d00	0.08132362
163	0x3df835b1	0.12119616
164	0x3d8c8caa	0.06862767
165	0x3dd8619f	0.10565495
166	0x3aad246e	0.001320971
167	0xbe8c509f	-0.2740526
168	0xba9a949b	-0.0011793555
169	0xbb2f6dcd	-0.0026768327
170	0x3c61943b	0.013768251
171	0x3d569377	0.052386727
172	0x3ce0bc98	0.027433679
173	0x3c7fc33d	0.015610513
174	0x3e0a63cd	0.13514633
175	0xbd196c73	-0.03745694
176	0x3e392ae2	0.18082765
177	0xbd5dfb95	-0.054195005
178	0x3c8e8b90	0.017400533
179	0x3e826578	0.2546804
180	0x3e55630f	0.20838569
181	0xbe49a274	-0.19690877
182	0x3da58ee0	0.08083892
183	0xbe3ed960	-0.1863761
184	0x3dab57ee	0.08366381
185	0xbc80b6d2	-0.015712176
186	0x3e0a9e0f	0.13536857
187	0x3ce12697	0.027484221
188	0xbd9c8c4d	-0.07643948
189	0x3c991b7c	0.018689863
190	0xbe2bd653	-0.16780977
191	0xbe665e1f	-0.22496842
192	0xbeb54288	-0.35402322
193	0xbc240c4d	-0.010012698
194	0x3d6534be	0.055958502
195	0x3dfb4bbd	0.12270305
196	0x3dffefa4	0.1249688
197	0xba196990	-0.0005852217
198	0x3de43774	0.11143389
199	0xbd4c2f58	-0.049849838
200	0x3d91a325	0.071111955
201	0xbe4b76a6	-0.1986948
202	0xbdd085ed	-0.10181794
203	0x3e8fa20d	0.28053322
204	0xbe909fd2	-0.28246933
205	0xbe108258	-0.14112222
206	0x3d988a01	0.07448197
207	0x3dcf2359	0.10114164
208	0xbd0056b5	-0.03133269
209	0xbcc90435	-0.024538139
210	0xbe4edd97	-0.20201717
211	0x3dac1910	0.08403218
212	0xbe6b9d8e	-0.23009321
213	0x3e33edf4	0.1757124
214	0x3e4fd4b8	0.2029599
215	0xbd2ba7f9	-0.041908238
216	0xbe00bfb6	-0.12573132
217	0x3e3fc40f	0.18727134
218	0x3cbb964a	0.022898812
219	0x3e11edee	0.14250919
220	0xbe0e4d50	-0.1389668
221	0xbde3c419	-0.11121387
222	0xbd2704e6	-0.040776156
223	0xbbc9da9c	-0.0061600935
224	0x3d22bffe	0.03973388
225	0x3e248874	0.16067678
226	0x3e5b56e5	0.21419866
227	0x3c93c593	0.018038547
228	0x3dfcb7f7	0.12339776
229	0x3c948b59	0.018132852
230	0xbcc01185	-0.023445854
231	0x3e447f0e	0.19189093
232	0xbdd9d73a	-0.10636754
233	0x3e938ea0	0.28819752
234	0x3e08b29b	0.13349383
235	0x3dfa6876	0.122269556
236	0xbe11df4f	-0.14245342
237	0x3dc198be	0.094529614
238	0xbd083afd	-0.03325938
239	0xbdfaf561	-0.122538336
240	0xbda086a4	-0.07838181
241	0x3ced50a2	0.028969113
242	0x3e4b63ad	0.19862242
243	0x3d1a33bc	0.037646994
244	0x3e3dc78e	0.18533155
245	0xbd8ec1bc	-0.06970546
246	0xbe8ca671	-0.27470735
247	0x3d045d22	0.03231538
248	0x3da39d82	0.079890266
249	0xbd9cc9d9	-0.07655687
250	0xbd41c8dd	-0.0473107
251	0xbdf3eac4	-0.11910012
252	0xbda7fd9a	-0.082026675
253	0x3e90940a	0.28237945
254	0x3da3a5ee	0.07990633
255	0x3d3efee9	0.04662982

encoder_conv_01.0.bias f4 [32]
0	0xbd1bd859	-0.038048122
1	0xbdae5c0a	-0.08513649
2	0xbd168bb1	-0.036754314
3	0x3c8136c9	0.015773194
4	0xbcde011d	-0.02710014
5	0x3c7289ff	0.014803409
6	0xbb825e5f	-0.003978535
7	0xbd51643b	-0.051120978
8	0x3bb7291d	0.005589618
9	0x3c0bc136	0.008529952
10	0x3d4f7c05	0.050655384
11	0x3c9781f3	0.018494582
12	0xbcbcd7f0	-0.023052186
13	0xbca647c0	-0.020297885
14	0x3b379aa4	0.0028015757
15	0x3d4f0fb4	0.050552085
16	0xbdb9b360	-0.09067416
17	0x3d5d0850	0.053963006
18	0xbbe56b85	-0.0070013427
19	0x3ccf30e4	0.025291868
20	0xbbb465b7	-0.0055052894
21	0x3d1ba4c2	0.037998922
22	0x3d876edf	0.06612944
23	0xbcae73db	-0.021295479
24	0xbcd8e498	-0.02647619
25	0xbd3a3feb	-0.045471113
26	0x3c91df1a	0.017806578
27	0xbd5fd4eb	-0.054646414
28	0x3c71a695	0.014749189
29	0x3d4098cf	0.04702073
30	0xbcda975a	-0.026683498
31	0xbd3a1ee7	-0.045439627

encoder_conv_01.1.weight f4 [32]
0	0x3f9cf67d	1.2262722
1	0x3f94428d	1.158281
2	0x3f7f4a4d	0.9972275
3	0x3f9d4b47	1.2288598
4	0x3f4e12d8	0.80497503
5	0x3f8c59d6	1.0964916
6	0x3f9ba64e	1.2160127
7	0x3f6e68a4	0.9312842
8	0x3f87cec6	1.0609977
9	0x3f9215d9	1.1412917
10	0x3f888275	1.0664812
11	0x3f87f040	1.0620193
12	0x3f892349	1.0713893
13	0x3f728a1a	0.94741976
14	0x3f7d7640	0.9900856
15	0x3f7d8772	0.990348
16	0x3f8d135d	1.1021534
17	0x3f869c25	1.0516402
18	0x3f60feef	0.87889
19	0x3f8be9c5	1.0930716
20	0x3f9bc836	1.2170475
21	0x3f9d5a85	1.2293249
22	0x3f99af51	1.2006627
23	0x3f6884ed	0.9082783
24	0x3faca33d	1.3487316
25	0x3f7cdceb	0.98774594
26	0x3f89bedf	1.0761374
27	0x3f521847	0.82068294
28	0x3f9552bc	1.1665874
29	0x3f85dc0a	1.0457776
30	0x3f76ccec	0.96406436
31	0x3f4b8229	0.79495484

encoder_conv_01.1.bias f4 [32]
0	0xbe2d5d68	-0.16930163
1	0x3e48ff1c	0.19628567
2	0xbe3ed656	-0.1863645
3	0x3df3e51b	0.11908933
4	0xbe57478a	-0.21023384
5	0xbccd65d7	-0.025072975
6	0xbc5f2a02	-0.013620855
7	0xbe8a5abd	-0.27022353
8	0xbea1c96f	-0.31598994
9	0xbe82c31a	-0.25539476
10	0xbe2f6f47	-0.17132293
11	0x3ea384bc	0.31937206
12	0xbd7d7950	-0.06188327
13	0xbe5c8955	-0.21536763
14	0xbe438da0	-0.19096994
15	0xbe4cd169	-0.20001759
16	0x3e7d3a52	0.24729279
17	0xbb6c057c	-0.003601401
18	0xbed30d5b	-0.41221127
19	0x3e9a5e46	0.3015005
20	0xbd65c087	-0.05609181
21	0x3e1cf552	0.15327957
22	0xbca1537c	-0.019693129
23	0xbdfbfe1f	-0.12304329
24	0xbcdd72cb	-0.027032277
25	0xbe67e0b3	-0.2264431
26	0x3d9399d8	0.07207078
27	0xbea86126	-0.32886618
28	0xbca4750e	-0.020075347
29	0xbe560804	-0.20901495
30	0xbe2fd7f9	-0.17172231
31	0xbe14ca5c	-0.14530319

encoder_conv_01.1.running_mean f4 [32]
0	0xbef3b4cb	-0.47598872
1	0x3fb61b19	1.422702
2	0xbe841a27	-0.25801203
3	0x3edb95b2	0.42887646
4	0xbfd58b55	-1.6683146
5	0xbebc4a4b	-0.3677543
6	0x3f38d04b	0.7219283
7	0xbfd63ed6	-1.6737926
8	0x3f04cd35	0.5187562
9	0xc00c6ff6	-2.1943336
10	0xbe9596a0	-0.2921648
11	0xbf201805	-0.6253665
12	0xbfa2e9d1	-1.2727605
13	0xbfccad4a	-1.5990384
14	0xbd9ee189	-0.07757861
15	0xbf7ac72a	-0.9796015
16	0xbf6d2d4d	-0.9264725
17	0xbfda2b4e	-1.7044466
18	0x3e24d379	0.16096295
19	0x402ed4d6	2.7317405
20	0x3f02a41c	0.5103166
21	0xbf6945f1	-0.9112235
22	0xbff296b3	-1.895224
23	0xbfb150f5	-1.3852831
24	0xbf69fd89	-0.9140249
25	0x3eb610e3	0.3555976
26	0x3e610ac0	0.21976757
27	0xbf8daf36	-1.1069095
28	0xbe7b023b	-0.2451257
29	0x3f84a3d0	1.0362492
30	0x3f270930	0.65248394
31	0x3eec1931	0.4611297

encoder_conv_01.1.running_var f4 [32]
0	0x404b02c4	3.1720438
1	0x407adfd3	3.9199111
2	0x400da895	2.2134144
3	0x40860b0a	4.1888475
4	0x4022ccc0	2.543747
5	0x4049ab61	3.1510851
6	0x40d403c6	6.6254606
7	0x4051f7f4	3.2807589
8	0x4001be55	2.027242
9	0x402d50cc	2.7080564
10	0x40367d8c	2.8514128
11	0x408bd123	4.3692794
12	0x40096bb5	2.147199
13	0x406a078a	3.6567101
14	0x404c1994	3.1890612
15	0x400c7d10	2.1951332
16	0x40a1fc58	5.0620537
17	0x40a97667	5.2957034
18	0x40bebdae	5.9606543
19	0x40c4e173	6.1525207
20	0x40fa9f7e	7.8319693
21	0x40748839	3.8208144
22	0x411ed457	9.926841
23	0x4050456f	3.254238
24	0x40b4ab15	5.645884
25	0x4010fbaf	2.2653615
26	0x40b3c58c	5.6178646
27	0x40565f67	3.349573
28	0x40e719cb	7.2218986
29	0x40875775	4.229426
30	0x406b8bbc	3.6804037
31	0x40139bd6	2.3063865

encoder_conv_02.0.weight f4 [32, 32, 3, 3]
0	0xbdb45895	-0.08805958
1	0xbe8df78d	-0.2772793
2	0x3dc98b9b	0.09841081
3	0x3e770817	0.2412418
4	0x3e992eb4	0.29918444
5	0x3d62ef67	0.055404093
6	0xbe69badc	-0.22825187
7	0xbe110dac	-0.14165372
8	0xbe215cd2	-0.15758064
9	0xbd0ee9b8	-0.03489086
10	0xbd9760f6	-0.07391541
11	0xbdf2843c	-0.11841628
12	0x3e829ec3	0.2551175
13	0x3e28c334	0.16480714
14	0x3e06967b	0.13143341
15	0x3e5c3a91	0.21506716
16	0x3e1ec876	0.15506157
17	0xbe76145e	-0.24031207
18	0xbd97d235	-0.07413141
19	0x3b994ac7	0.0046781036
20	0x3c991f24	0.018691607
21	0x3c0e9d57	0.008704505
22	0x3ea12abc	0.31477916
23	0xbdb694c9	-0.08915097
24	0x3c3affab	0.011413495
25	0xbe2a8e43	-0.16655831
26	0xbd315055	-0.0432895
27	0x3e4df246	0.20111951
28	0xbe134b7c	-0.14384264
29	0x3e3ad783	0.18246274
30	0xbdb374f1	-0.08762539
31	0x3c75bcfa	0.014998669
32	0xbe678cd3	-0.22612314
33	0xbc4c2af7	-0.0124614155
34	0x3d03ce52	0.032179184
35	0xbd471003	-0.048599254
36	0xbdd059bc	-0.101733655
37	0xbe235279	-0.1594943
38	0x3d964f70	0.0733937
39	0x3ddf69fb	0.10908886
40	0xbdf6b71a	-0.120466426
41	0x3df282fe	0.11841391
42	0x3df4e0e6	0.119569585
43	0xbd00406a	-0.03131143
44	0xbe59b6b2	-0.21261099
45	0xbd6f8dc9	-0.058484826
46	0xbdf8cced	-0.121484615
47	0x3dad379e	0.08457874
48	0x3db6ad41	0.08919764
49	0xbe2bdb76	-0.16782936
50	0xbdad139f	-0.08451008
51	0x3e8a654e	0.27030414
52	0x3e2b0563	0.16701274
53	0x3c3e689c	0.0116216205
54	0x3e4c4eb1	0.19951893
55	0x3e3e1bda	0.18565312
56	0x3db5e757	0.08882015
57	0xbce47a9b	-0.027890494
58	0xbd9476df	-0.07249235
59	0x3bea5f9f	0.007152512
60	0x3d117619	0.035513017
61	0x3e803202	0.25038153
62	0x3cff577f	0.031169651
63	0xbc60b25b	-0.013714398
64	0xbdb0cdf2	-0.08633031
65	0x3dc34743	0.095350765
66	0x3eaa5fce	0.33276218
67	0xbe21e6e0	-0.15810728
68	0xbdfd9665	-0.12382201
69	0xbd817dd3	-0.06322827
70	0xbe4a0011	-0.19726588
71	0xbe028195	-0.12744744
72	0xbd362985	-0.04447319
73	0xbd29eafc	-0.041483864
74	0x3d2791b7	0.04091045
75	0x3ca79749	0.02045788
76	0xbdfbff93	-0.12304606
77	0xbdb14f55	-0.086577095
78	0x3e49883d	0.19680877
79	0xbd556aa6	-0.05210366
80	0xbeb8e952	-0.3611551
81	0xbeaf559e	-0.34245008
82	0x3e8eb9b7	0.27876064
83	0x3e1660c3	0.14685349
84	0x3d92c676	0.0716676
85	0xbc893ac8	-0.016751662
86	0xbe5449f1	-0.20731331
87	0x3c929189	0.017891662
88	0xbd11f7e0	-0.035636783
89	0xbe032f0f	-0.1281092
90	0x3d1cb43c	0.038257822
91	0xbdb9b78d	-0.09068213
92	0xbb1255ce	-0.0022328976
93	0xbb344306	-0.002750577
94	0x3cae49c2	0.021275405
95	0xbe7cff27	-0.24706708
96	0x3d394852	0.045234986
97	0xbd098534	-0.033574298
98	0xbe5f2097	-0.21789776
99	0xbddfba6a	-0.109242275
100	0xbd70b4fb	-0.058766346
101	0xbd40e162	-0.04708994
102	0x3df5b482	0.1199732
103	0x3de25748	0.11051804
104	0xbc719610	-0.01474525
105	0xbe157b56	-0.1459783
106	0x3c62ec0e	0.013850225
107	0xbe4447f6	-0.19168076
108	0x3e714623	0.23561911
109	0xbc90667e	-0.017626997
110	0xbc6bf0af	-0.014400645
111	0x3c25187a	0.010076636
112	0x3d7accba	0.0612304
113	0x3e4420f2	0.19153193
114	0x3e02f864	0.12790066
115	0xbd0ba9a5	-0.034097333
116	0xbcf2381f	-0.029567776
117	0x3d83624a	0.064152315
118	0x3c6068d8	0.013696872
119	0xbeac891b	-0.33698353
120	0xbe0752f4	-0.13215238
121	0xbd89b190	-0.067233205
122	0xbd882143	-0.06646969
123	0xba5d7ae3	-0.00084487925
124	0x3deb408f	0.11486923
125	0xbd39978d	-0.045310546
126	0x3c9c3257	0.019066973
127	0x3d91416f	0.070925586
128	0x3cb45708	0.022014156
129	0x3a6e4463	0.000908917
130	0x3de22abe	0.11043309
131	0x3c77de02	0.015128614
132	0x3d60bf7a	0.054870106
133	0xbe5da6f1	-0.21645714
134	0x3e3a0a77	0.18168055
135	0xbd0a303b	-0.033737402
136	0x3dcb442e	0.099251136
137	0x3d50b7f7	0.050956693
138	0x3e4d469c	0.20046467
139	0xbd7b5bd2	-0.061366864
140	0x3dfbcda9	0.12295086
141	0xbed0706d	-0.40710774
142	0x3c0b7428	0.0085115805
143	0xbe81867d	-0.2529792
144	0xb9f24440	-0.00046208687
145	0x3c39779e	0.011320023
146	0x3e8239be	0.2543468
147	0xbdb2662b	-0.08710893
148	0xbc8d420c	-0.017243408
149	0xbe961c5d	-0.29318514
150	0xbe1aedca	-0.15129772
151	0x3e02fb33	0.12791137
152	0xbbc4cd71	-0.006005936
153	0xbd669bee	-0.05630105
154	0xbd4cf83a	-0.050041415
155	0xbcffb68b	-0.031214973
156	0x3daf4867	0.085587315
157	0xbe2e455f	-0.1701865
158	0xbe7bc417	-0.24586521
159	0x3e084078	0.13305843
160	0xbe8623e9	-0.26199272
161	0x3e35e37e	0.17762563
162	0x3d8ef451	0.069801934
163	0xbd448a94	-0.04798372
164	0xbbddb02b	-0.0067653856
165	0xbd97bf0b	-0.074094854
166	0xbc26a0fe	-0.0101702195
167	0xbc11bfc0	-0.008895814
168	0xbd2b41d3	-0.04181082
169	0xbda0b125	-0.07846288
170	0x3d0f22d9	0.034945343
171	0x3e90e5d1	0.28300336
172	0x3e893b70	0.2680316
173	0xbd86f0b1	-0.06588877
174	0x3dfbdec1	0.12298346
175	0xbe009883	-0.12558179
176	0xbe8838f8	-0.26605964
177	0xbdddea07	-0.10835653
178	0xbe8d7da1	-0.2763491
179	0xbde1a440	-0.11017656
180	0xbe5d0df5	-0.21587355
181	0x3e11235a	0.14173642
182	0x3cf75c93	0.03019551
183	0x3de685e8	0.11256009
184	0xbd72f0b0	-0.05931157
185	0xbdbc4a61	-0.09193874
186	0xbdb39f3e	-0.087706074
187	0x3c183789	0.009290584
188	0x3ce18d81	0.027533295
189	0xbd017fa9	-0.031615887
190	0xbd117a47	-0.035517003
191	0xbd5fcd9a	-0.054639436
192	0x3dade055	0.084900536
193	0x3dc599ee	0.096485004
194	0x3c103023	0.008800539
195	0xbe14c9c9	-0.145301
196	0xbea33c24	-0.3188182
197	0x3daa3fcd	0.0831295
198	0xbe488971	-0.1958368
199	0xbc40481f	-0.011735945
200	0xbe1f70c3	-0.15570359
201	0x3db3e3d9	0.08783693
202	0xbd28c38c	-0.041202113
203	0x3e5398a2	0.20663694
204	0x3e2b3bab	0.1672198
205	0x3d6c2930	0.057656467
206	0x3e49e24a	0.19715229
207	0xbc3c6750	-0.011499241
208	0xbe76614d	-0.24060555
209	0xbdf6eb71	-0.12056626
210	0x3d5295cb	0.051412385
211	0x3e6994b9	0.2281064
212	0xbe2a01f6	-0.1660231
213	0xbd7be00c	-0.061492965
214	0xbd7853f0	-0.060626924
215	0xbd883594	-0.06650844
216	0xbc81589e	-0.015789326
217	0x3e4c66ef	0.19961141
218	0xbad8c143	-0.0016537089
219	0x3dcc34a7	0.0997098
220	0xbe03eaa9	-0.12882484
221	0xbe9e1ba0	-0.3088045
222	0x3d6f672b	0.058447998
223	0x3d85a5d9	0.065257736
224	0x3e224d8e	0.15849897
225	0xbc2fe13c	-0.010734852
226	0xbd36744f	-0.044544514
227	0x3e2b561e	0.1673207
228	0x3d66dbb0	0.056361854
229	0x3e23188c	0.15927333
230	0x3c585a48	0.0132051185
231	0xbeac3cb6	-0.3364007
232	0xbe4a8ec1	-0.19781019
233	0xbe2b8451	-0.16749693
234	0xbe22065b	-0.15822737
235	0xbc484ada	-0.012224877
236	0xbe4a863b	-0.19777767
237	0x3d964eb2	0.07339229
238	0xbd01d4e7	-0.03169718
239	0xbd850a13	-0.06496062
240	0xbdd385ef	-0.1032828
241	0x3e659ece	0.2242386
242	0xbdbd4a59	-0.09242696
243	0xbd77c52e	-0.06049078
244	0xbe104b7a	-0.14091292
245	0x3dcac0df	0.099000685
246	0xbd888896	-0.06666677
247	0x3e38aed6	0.18035445
248	0x3deebe5d	0.11657403
249	0xbe11cf46	-0.14239225
250	0xbe0c7642	-0.13716987
251	0x3dfcb3a5	0.12338952
252	0xbd6ae89f	-0.05735075
253	0xbdddf333	-0.10837402
254	0xbe1de3ca	-0.15418926
255	0x3ce2133c	0.027597062

encoder_conv_02.0.bias f4 [32]
0	0xbcba9874	-0.022777773
1	0x3c3d5925	0.011556898
2	0xbd599ceb	-0.053128164
3	0xbdcbbdf4	-0.0994834
4	0x3b2b3d73	0.0026129156
5	0x3d7c1003	0.061538707
6	0xbd9475c2	-0.07249023
7	0x3d6637ad	0.05620544
8	0x3da5f630	0.08103597
9	0xbd93289d	-0.07185481
10	0xbcc0b923	-0.02352578
11	0xbc81ef48	-0.015861169
12	0x3c28478a	0.0102709625
13	0x3ac4dfb3	0.0015020281
14	0x3ce83082	0.028343443
15	0xbce298c1	-0.02766073
16	0x3bc14d40	0.0058991015
17	0x3c2605c1	0.010133208
18	0x3d7c06b5	0.061529834
19	0xbcff1a67	-0.03114052
20	0xbca6f7fd	-0.020381922
21	0xbcd559c2	-0.026043776
22	0x3c982fdf	0.018577514
23	0x3c852fd3	0.016258156
24	0xbd37a8f0	-0.044838846
25	0xbcffad6e	-0.031210627
26	0x3d73eacf	0.059550103
27	0x3b29b6a2	0.002589621
28	0xbc795e72	-0.015220271
29	0x3b346e9c	0.0027531749
30	0x3d34f183	0.044175636
31	0xbccf4116	-0.02529959

encoder_conv_02.1.weight f4 [32]
0	0x3f905bde	1.1278036
1	0x3f6dae70	0.92844296
2	0x3fa0c5ca	1.256036
3	0x3f9209ef	1.1409281
4	0x3f7b717f	0.98220056
5	0x3f913801	1.1345216
6	0x3f64f2bc	0.89432883
7	0x3f926584	1.143723
8	0x3f7e15b4	0.99251866
9	0x3f8c15cc	1.0944152
10	0x3f8b9d9c	1.0907474
11	0x3f83097c	1.0237269
12	0x3f8bc164	1.0918393
13	0x3f52e11f	0.8237476
14	0x3f6a97a7	0.91637653
15	0x3f9a4fef	1.2055644
16	0x3f98fda9	1.1952411
17	0x3f3f48e6	0.7472061
18	0x3f7c33d2	0.9851657
19	0x3f9a1812	1.2038596
20	0x3f834a4f	1.0257052
21	0x3f653c12	0.89544785
22	0x3fa03589	1.2516338
23	0x3f9e4585	1.2364966
24	0x3f525d4a	0.821736
25	0x3f96afba	1.1772377
26	0x3fa2490d	1.2678543
27	0x3f8ef661	1.1168939
28	0x3f87b072	1.0600722
29	0x3f5ff161	0.8747769
30	0x3f84a2d7	1.0362195
31	0x3fa9578a	1.322984

encoder_conv_02.1.bias f4 [32]
0	0x3d2cfe65	0.042234797
1	0xbeb8fefd	-0.3613204
2	0x3d0f4eac	0.034987137
3	0x3ee7e77f	0.45293805
4	0xbe876a32	-0.26448208
5	0x3ee3b9c1	0.44477656
6	0xbecb597d	-0.39716712
7	0x3e88a033	0.26684722
8	0xbe700251	-0.23438384
9	0xbebb63ae	-0.36599487
10	0x3ee72a26	0.45149344
11	0x3d82f35a	0.06394072
12	0x3e24c389	0.16090216
13	0xbed62293	-0.41823253
14	0xbeba5ec6	-0.3640043
15	0x3d13331a	0.035937406
16	0x3e1716bc	0.14754766
17	0xbe7dbe2d	-0.24779578
18	0xbef660f2	-0.48120838
19	0x3ccdb489	0.0251105
20	0xbe1d4f6a	-0.15362325
21	0xbed123a2	-0.40847498
22	0x3dd48c03	0.103782676
23	0x3de230d9	0.11044473
24	0xbe906244	-0.2819997
25	0x3e8dfbb5	0.277311
26	0x3e29bc8c	0.16575831
27	0x3ecf2665	0.4045898
28	0xbe77f7a8	-0.24215567
29	0xbe8760f4	-0.26441157
30	0x3ea9cb35	0.33162847
31	0x3e505d6a	0.20348135

encoder_conv_02.1.running_mean f4 [32]
0	0xbf8a5272	-1.080641
1	0xbf4b39d7	-0.7938513
2	0xbfd1808a	-1.6367352
3	0xbfb78a48	-1.4339075
4	0xbfa8cdc1	-1.3187791
5	0xbf833897	-1.0251645
6	0xbf827d71	-1.0194532
7	0xbf1545cb	-0.5830962
8	0xbfbbdd51	-1.4676915
9	0xbf69e476	-0.9136423
10	0xbf2978c6	-0.6619991
11	0xc0316d09	-2.77228
12	0xbebd5a8e	-0.3698315
13	0xbf3170f4	-0.6931298
14	0x3e8b095e	0.27155584
15	0xbf22659a	-0.6343628
16	0xbf2fcacb	-0.6866881
17	0xbf3cfe1c	-0.7382524
18	0xbed7910d	-0.42102852
19	0xbfcef750	-1.6169224
20	0xbf217acd	-0.63078004
21	0xbf8f56a1	-1.1198312
22	0xbfdc05ec	-1.7189307
23	0x3e32583f	0.17416476
24	0x3eafddb7	0.34348843
25	0xbfc2f56f	-1.523115
26	0xbf813194	-1.0093255
27	0xbf2307e5	-0.6368392
28	0xbf7779bd	-0.9667013
29	0xbeffcd97	-0.4996154
30	0xbf828812	-1.0197775
31	0xbfd05abc	-1.627769

encoder_conv_02.1.running_var f4 [32]
0	0x408f3902	4.475709
1	0x4097919a	4.7365236
2	0x40ddc28d	6.929999
3	0x404ab51c	3.167304
4	0x4058a800	3.385254
5	0x40698d4d	3.6492493
6	0x40b45306	5.6351347
7	0x40ac32ec	5.381216
8	0x40b892a9	5.767903
9	0x404e862f	3.22694
10	0x40982074	4.7539616
11	0x40d711b6	6.720912
12	0x40a85ca2	5.2613077
13	0x40a9dc23	5.308122
14	0x40d24818	6.5713005
15	0x40d1698d	6.5441346
16	0x40bb709d	5.8574967
17	0x409972b0	4.79525
18	0x402707da	2.6098542
19	0x40c633ed	6.1938386
20	0x408c39e3	4.3820662
21	0x4070b2c0	3.76091
22	0x40ceaa56	6.458293
23	0x40c01e24	6.0036793
24	0x4090279b	4.5048347
25	0x409a06bb	4.8133216
26	0x40acfaf8	5.405636
27	0x409ff478	4.9985924
28	0x4061efcb	3.5302608
29	0x40591b09	3.392275
30	0x4076427a	3.8478074
31	0x40a95650	5.291786

encoder_conv_10.0.weight f4 [64, 32, 3, 3]
0	0x3e153682	0.14571574
1	0xbdf63471	-0.12021721
2	0x3db6d64e	0.08927594
3	0xbd7ad4a4	-0.061237946
4	0x3e4d5993	0.20053701
5	0xbcd2357c	-0.025660269
6	0x3e8324ab	0.25613913
7	0x3da5c2fa	0.080938295
8	0x3d0033a3	0.031299245
9	0xbe0a7f70	-0.13525176
10	0x3e08298b	0.13297097
11	0x3c94b605	0.0181532
12	0xbd5abb90	-0.05340153
13	0x3da96ab7	0.08272307
14	0xbe0e1635	-0.13875659
15	0xbe36bca9	-0.17845406
16	0x3e339c0b	0.17539994
17	0xbde1896f	-0.110125415
18	0xbd74e0c3	-0.059784662
19	0x3de8a6db	0.1135995
20	0xbcecda29	-0.02891262
21	0xbca07488	-0.019586816
22	0x3b16b985	0.0022998762
23	0x3da3f1d0	0.080051064
24	0x3d613237	0.05497953
25	0x3ed5d598	0.41764522
26	0x3e9a6246	0.30153102
27	0x3a3a730f	0.0007112482
28	0x3c9c3378	0.019067511
29	0xbdf105cc	-0.11768684
30	0xbc5f0a45	-0.013613288
31	0x3cc09bd7	0.02351181
32	0x3e29eaff	0.1659355
33	0xbe5386b8	-0.2065686
34	0xbe3d29e6	-0.18473014
35	0xbd9dc568	-0.07703668
36	0x3b8d7e96	0.0043180687
37	0x3c8a8eca	0.01691379
38	0xbdea8cc7	-0.114526324
39	0x3d6599c7	0.056054857
40	0x3b37847e	0.0028002555
41	0x3d47cdbe	0.048780195
42	0x3e4307ca	0.1904594
43	0x3e35e5b3	0.17763405
44	0xbe0bd0db	-0.13653891
45	0x3d7f4283	0.06231929
46	0xbdc1e6a9	-0.09467823
47	0xbe16cafa	-0.14725867
48	0xbdb47352	-0.08811058
49	0xbbd0b5fa	-0.0063693495
50	0x3db3caf4	0.087789446
51	0x3d6e996e	0.05825179
52	0x3d425c03	0.04745103
53	0xbda445e0	-0.0802114
54	0x3d9f7000	0.07785034
55	0x3e492bdc	0.19645637
56	0x3d48ce19	0.049024675
57	0x3d98b8de	0.074571356
58	0xbe671ec4	-0.2257033
59	0xbdc96f0e	-0.09835635
60	0xbcd28128	-0.025696352
61	0xbe8d584d	-0.2760643
62	0x3e300eb9	0.17193116
63	0xbb99d77f	-0.0046948786
64	0x3dd37df2	0.103267565
65	0x3d68991f	0.056786653
66	0xbcc2d528	-0.023783281
67	0xbac73cc6	-0.0015200607
68	0xbdf47319	-0.11936016
69	0x3e9271b0	0.28602362
70	0xbe1e0f28	-0.15435469
71	0x3cd845ee	0.026400533
72	0xbd9beff1	-0.076141246
73	0xbc30d886	-0.010793811
74	0x3e8c8b24	0.27449906
75	0x3e8f5fcd	0.28002778
76	0x3e138e20	0.14409685
77	0x3caab35f	0.020837484
78	0xbe6ec42a	-0.23317018
79	0xbdfb3c42	-0.12267353
80	0x3dd58481	0.10425664
81	0xbdcee076	-0.10101406
82	0xbd0452a5	-0.03230538
83	0x3e68be7b	0.22728913
84	0x3e219f43	0.1578341
85	0x3e46980e	0.19393942
86	0xbe6b88f9	-0.2300147
87	0xbe834d4d	-0.25644913
88	0xbdea9c1b	-0.11455556
89	0xbd46c671	-0.048529092
90	0x3e5a65fb	0.21327965
91	0xbbc011ad	-0.005861482
92	0xbe25362e	-0.16133949
93	0xbe17776d	-0.14791651
94	0xbc91498d	-0.017735267
95	0xbdb57a8a	-0.08861263
96	0xbe07658a	-0.13222328
97	0xbe856372	-0.26052433
98	0xbe24cfc1	-0.16094877
99	0x3dc70879	0.09718413
100	0x3d9c11f4	0.07620612
101	0xbe542e4e	-0.20720789
102	0x3e87d5cf	0.2653031
103	0xbdb11ae6	-0.086477086
104	0xbd923d04	-0.07140544
105	0x3d8151e9	0.06314451
106	0xbe7a8b95	-0.24467309
107	0xbe00389b	-0.12521593
108	0xbda5e12b	-0.08099588
109	0xbe4862cd	-0.1956894
110	0x3cd1c5fe	0.025607105
111	0xbd8e786b	-0.06956562
112	0xbd43404c	-0.04766874
113	0xbe46c34a	-0.19410434
114	0xbdb57899	-0.08860893
115	0xbea6f94e	-0.3261208
116	0xbe3662ed	-0.17811175
117	0xbe25e111	-0.16199137
118	0x3d10e5af	0.035375293
119	0x3deb05c3	0.11475708
120	0x3e3a27f5	0.18179305
121	0xbcc4be39	-0.024016486
122	0xbe1cbd21	-0.15306522
123	0x3c77b8ac	0.015119713
124	0xbe3c9c87	-0.18419085
125	0xbdb218b4	-0.08696118
126	0xbec9afa3	-0.39391813
127	0x3e0a0b46	0.13480863
128	0xbc0ab750	-0.008466557
129	0x3e01ed49	0.12688173
130	0x3e9495a3	0.29020414
131	0xbd283842	-0.041069277
132	0xbda526ed	-0.08064065
133	0x3d61db8f	0.055141028
134	0xbcdf60bc	-0.027267806
135	0xbe807a79	-0.2509344
136	0xbe2b0918	-0.16702688
137	0x3d94ed2d	0.072718
138	0xbe204ce6	-0.15654334
139	0x3e7b95a2	0.24568799
140	0xbbcb76ef	-0.0062092463
141	0xbdaba0a8	-0.08380252
142	0xbdc81e9d	-0.09771464
143	0x3aa954fb	0.0012919003
144	0xbbdce97f	-0.006741702
145	0xbe104db4	-0.14092141
146	0xbde1f7b6	-0.11033575
147	0xbe962bc4	-0.29330266
148	0xbd91770d	-0.07102785
149	0xbe4e11b6	-0.20123944
150	0xbefd23c2	-0.49441344
151	0xbe893bc1	-0.268034
152	0x3c4e23c4	0.012581769
153	0xbd57856f	-0.052617487
154	0x3ca1a85d	0.019733602
155	0x3dc244ad	0.09485755
156	0xbda6e292	-0.081486836
157	0xbe0b8a9a	-0.13627091
158	0x3e212b62	0.15739205
159	0x3d4a4391	0.049380843
160	0x3dd7e32a	0.10541375
161	0x3e373ab4	0.17893487
162	0xbe401e3a	-0.1876153
163	0xbdad3261	-0.08456875
164	0xbd7ea0ba	-0.062165
165	0xbe2938f0	-0.16525626
166	0x3daac266	0.0833786
167	0xbd69d380	-0.057086468
168	0xbe9e78b3	-0.3095146
169	0x3d84d08d	0.064850904
170	0xbd0aea74	-0.033915
171	0x3d941853	0.07231202
172	0xbb20edc1	-0.0024555775
173	0x3d5d3852	0.05400879
174	0x3d396021	0.04525769
175	0xbda09c93	-0.07842364
176	0xbe959876	-0.2921788
177	0x3e85c752	0.26128632
178	0x3df859ec	0.12126526
179	0xbe5edbc5	-0.21763523
180	0xbe154284	-0.14576155
181	0x3eb7a860	0.35870647
182	0xbe04b7fe	-0.12960812
183	0x3e369f97	0.17834316
184	0xbdc5abc5	-0.09651903
185	0xbe04c300	-0.12965012
186	0x3dd0a528	0.10187751
187	0xbc492287	-0.012276298
188	0x3c9fb0b5	0.01949344
189	0x3e8d587a	0.27606565
190	0x3d14b9ba	0.036309935
191	0x3d7c44ec	0.061589167
192	0x3e4a8ac4	0.19779497
193	0xbe8030bd	-0.25037184
194	0x3e396a5c	0.18106979
195	0x3e1eb345	0.15498073
196	0x3ce02984	0.027363546
197	0xbc7387f5	-0.014863958
198	0x3d0118d6	0.031517826
199	0x3d77d244	0.06050326
200	0x3e658419	0.22413673
201	0x3d97032c	0.07373652
202	0xbe2755cd	-0.16341324
203	0x3d3d2b00	0.046183586
204	0xbd95864c	-0.07301006
205	0x3e918b63	0.28426656
206	0xbe7aa6e5	-0.24477728
207	0x3c353fd3	0.01106258
208	0xbdb84922	-0.08998324
209	0xbe5c9dd9	-0.21544589
210	0xbd1df45c	-0.038563117
211	0xbd00df15	-0.031462748
212	0x3dfafc82	0.12255193
213	0xbda5d167	-0.08096581
214	0xbc04c944	-0.008104626
215	0xbe0a6ed9	-0.13518848
216	0xbde4a1e7	-0.11163693
217	0x3d2de525	0.042454857
218	0xbd3f153e	-0.046651118
219	0x3d6f56fa	0.058432557
220	0x3e18f226	0.14936122
221	0xbd238ab9	-0.039927218
222	0x3e69457b	0.22780411
223	0x3d56cbc0	0.052440405
224	0xbd663d10	-0.056210577
225	0x3e04691d	0.12930723
226	0xbce75387	-0.028238071
227	0x3b3f44c2	0.002918527
228	0x3de052bf	0.109532826
229	0x3ca122d0	0.01966992
230	0x3d16927a	0.036760785
231	0xbd8874d3	-0.066629075
232	0xbea04be9	-0.31307915
233	0xbe3ff207	-0.1874467
234	0xbd6485a2	-0.055791505
235	0x3dfe4213	0.124149464
236	0x3d893250	0.066990495
237	0x3e488b17	0.19584309
238	0xbe4848ff	-0.19559096
239	0x3c843271	0.016137334
240	0xbebd4d51	-0.3697305
241	0xbb295023	-0.0025835119
242	0x3d9fbdd0	0.07799876
243	0xbe0c92a8	-0.1372782
244	0xbd99fd19	-0.07518978
245	0x3e3146cf	0.17312168
246	0x3da0a2a6	0.07843523
247	0xbe5afb17	-0.21384846
248	0x3d513b09	0.05108169
249	0xbe35bf34	-0.1774872
250	0xbe48e92c	-0.19620198
251	0xbb80089c	-0.0039072763
252	0x3dbd5712	0.09245123
253	0x3d33d58e	0.043904833
254	0xbd162aa7	-0.03666177
255	0x3e200492	0.15626743

encoder_conv_10.0.bias f4 [64]
0	0xbcd4dcc2	-0.025984172
1	0x3d188d07	0.03724387
2	0x3c3d5e78	0.011558168
3	0xbc11c0a4	-0.008896027
4	0xbcce3417	-0.025171323
5	0x3cfa6191	0.030564101
6	0x3c5f7d6d	0.013640744
7	0xbd25f5f5	-0.040517766
8	0xbc8139ec	-0.01577469
9	0xbcdae322	-0.026719633
10	0x3d0d6451	0.034519497
11	0x3d81db04	0.06340602
12	0x3d8f0fbe	0.069854245
13	0x3c1968ac	0.009363335
14	0x3d5bbadc	0.053645
15	0x3d41bca9	0.04729906
16	0xbd80b6a5	-0.06284837
17	0xbd3663c4	-0.044528738
18	0xbc08488a	-0.008318076
19	0xbd1c9637	-0.038229194
20	0xbca34ab4	-0.019933082
21	0x3d60a0da	0.0548409
22	0x3cab53fc	0.02091407
23	0x3d4c4243	0.04986788
24	0x3d7461a4	0.05966343
25	0xbce0c571	-0.027437897
26	0xbb8e0143	-0.0043336465
27	0xbb89cbc4	-0.004205199
28	0x3d1b6fa7	0.037948277
29	0xbc586f9a	-0.013210202
30	0xbc9aea4f	-0.018910555
31	0xbd60b453	-0.05485947
32	0xba2691c3	-0.00063541176
33	0x3c330405	0.010926251
34	0xbc828aca	-0.01593532
35	0x3a3dc871	0.0007239646
36	0xbd53327d	-0.05156182
37	0xbd4562f8	-0.048190087
38	0x3d6fa03c	0.05850242
39	0xbd282aa2	-0.041056283
40	0xbcd51755	-0.026012102
41	0xbd269ca6	-0.040676735
42	0x3d74b61a	0.059743978
43	0x3d0b308f	0.033981856
44	0x3d431e6f	0.047636446
45	0xbd489434	-0.048969463
46	0xbcf06ecd	-0.029349709
47	0xb9e00af1	-0.0004273276
48	0xbbc251e7	-0.0059301737
49	0xbd28fea1	-0.041258458
50	0xbc45a9a1	-0.012064368
51	0x3cfefb32	0.031125639
52	0x3cf6255c	0.030047111
53	0x3d170c02	0.036876686
54	0xbcc331fb	-0.023827543
55	0x3ca823fc	0.020524971
56	0x3d01f875	0.031731088
57	0xbce5f968	-0.028073028
58	0x3cbab263	0.02279014
59	0x3d23184d	0.039818097
60	0x3c3f7f59	0.011688077
61	0x3cd16ce0	0.025564611
62	0x3bffdcf3	0.0078083216
63	0x3bad37c3	0.0052861883

encoder_conv_10.1.weight f4 [64]
0	0x3f900876	1.1252582
1	0x3f8ac15b	1.0840257
2	0x3f935e87	1.1513222
3	0x3f88326c	1.0640388
4	0x3f689a0c	0.90860057
5	0x3f8a1de6	1.0790374
6	0x3f8ca4c1	1.0987779
7	0x3f872fee	1.0561502
8	0x3f7ef14d	0.99586946
9	0x3f81911d	1.012241
10	0x3f8e2ed0	1.1108036
11	0x3f7f09cc	0.99624324
12	0x3f77ad27	0.96748585
13	0x3f84dab1	1.0379239
14	0x3f61c55b	0.88191766
15	0x3f8ac591	1.0841542
16	0x3f9a24ae	1.2042444
17	0x3f84055e	1.0314138
18	0x3f811992	1.0085928
19	0x3f86bbd3	1.0526069
20	0x3f990153	1.1953529
21	0x3f724567	0.9463715
22	0x3f8c58a4	1.0964551
23	0x3f6825de	0.9068278
24	0x3f82b843	1.0212482
25	0x3f7c4139	0.9853702
26	0x3f7cca64	0.98746324
27	0x3f8c1861	1.094494
28	0x3f6a99b9	0.9164081
29	0x3f9ad876	1.2097309
30	0x3f916363	1.1358455
31	0x3f903451	1.1265966
32	0x3f6b3f7e	0.91893756
33	0x3f84773f	1.0348891
34	0x3f920805	1.1408697
35	0x3fb43ce7	1.4081086
36	0x3f91c3b9	1.1387855
37	0x3f6d5245	0.9270366
38	0x3f8d0e6e	1.1020029
39	0x3f859b28	1.0437975
40	0x3f6a9606	0.9163517
41	0x3f9215fd	1.141296
42	0x3f955465	1.166638
43	0x3f86b921	1.0525247
44	0x3f825562	1.0182307
45	0x3f870ba4	1.0550427
46	0x3f8d27ba	1.1027749
47	0x3f8ef3fe	1.116821
48	0x3f9b79fa	1.2146599
49	0x3f8387cd	1.0275818
50	0x3f6ed498	0.9329314
51	0x3f811b80	1.0086517
52	0x3f88b11b	1.0679048
53	0x3f90f06c	1.1323371
54	0x3f8c1767	1.0944642
55	0x3f903de4	1.1268888
56	0x3f6e62f3	0.93119735
57	0x3f8a2bc1	1.0794603
58	0x3f84eba6	1.0384414
59	0x3f95336d	1.1656319
60	0x3f76fbe6	0.96478117
61	0x3f919957	1.1374921
62	0x3f80d5fe	1.0065305
63	0x3f8d5f6f	1.1044749

encoder_conv_10.1.bias f4 [64]
0	0xbe1c105d	-0.15240617
1	0xbe781fca	-0.24230877
2	0xbe040c4b	-0.12895314
3	0x3e6a4016	0.2287601
4	0xbecb33d7	-0.39687988
5	0xbcdd86b6	-0.027041774
6	0xbe15e223	-0.14637046
7	0x3c36c08b	0.011154304
8	0xbe179a10	-0.14804864
9	0xbe5b2972	-0.21402529
10	0xbe41210d	-0.18860264
11	0xbcdd40bd	-0.027008409
12	0x3dbbefb9	0.09176583
13	0xbe915410	-0.28384447
14	0xbe154f13	-0.14580946
15	0xbdd71e7e	-0.10503863
16	0x3de87711	0.11350835
17	0xbec22325	-0.37917438
18	0xbe81c97f	-0.25349042
19	0xbea7b882	-0.32757956
20	0x3e828d52	0.25498444
21	0xbe371872	-0.17880419
22	0xbe20bc12	-0.15696743
23	0xbec595f4	-0.38590968
24	0x3e1cf3a6	0.1532732
25	0xbd069901	-0.03286076
26	0xbdefb8bf	-0.117051594
27	0xbd86f224	-0.065891534
28	0xbe824ebd	-0.25450698
29	0xb9b79441	-0.00035014938
30	0xbdc7ac0a	-0.09749611
31	0x3d8082c3	0.06274941
32	0xbeb23a23	-0.3480998
33	0xbec1ab18	-0.37825847
34	0xbe0ecf5e	-0.13946292
35	0xbd393b1d	-0.04522239
36	0xbdb17a65	-0.08665923
37	0xbe1c4f63	-0.15264659
38	0xbdeab205	-0.11459736
39	0x3e2b8863	0.16751246
40	0x3d172dfb	0.036909085
41	0xbdc9201a	-0.09820576
42	0x3bd23c34	0.006415868
43	0xbe67561c	-0.22591442
44	0xbe3df4e5	-0.18550451
45	0xbe484f39	-0.19561471
46	0xbe7ea736	-0.24868473
47	0xbdd78344	-0.10523084
48	0x3d9572f1	0.07297314
49	0xbe843aa5	-0.25825992
50	0xbe2ae728	-0.16689742
51	0xbedc9593	-0.43082866
52	0x3e9203ae	0.28518432
53	0xbdc89760	-0.097944975
54	0xbcbaf112	-0.02282003
55	0xbe4b1320	-0.19831514
56	0xbe85335d	-0.2601575
57	0xbe0bf199	-0.13666381
58	0xbe268514	-0.16261703
59	0x3db20594	0.0869247
60	0xbecc9b52	-0.3996225
61	0xbdbb5895	-0.09147755
62	0xbe5c0e1b	-0.21489756
63	0xbe9adf40	-0.3024845
