trained_models/MiniGrid-LavaLawnS16-v0/model.pt (torch, 931640 bytes, 73 tensors)

theta f4 [4, 16, 16]
1.0 1.0 1.0 1.0 1.0 1.0 1.0 1.0
1.0 1.0 1.0 1.0 1.0 1.0 1.0 1.0
1.0 0.77657115 1.1512674 0.6057976 1.282512 0.5076081 0.81966877 0.83281434
0.9893209 0.82447386 0.95559996 1.0262469 0.99007654 1.0817144 0.65796876 1.0
1.0 0.82855064 0.7399482 0.7760498 0.74546206 0.8704805 1.1791985 0.9127543
0.7428192 0.9600935 0.7901815 1.0570704 1.0355872 1.0159988 1.1469984 1.0
1.0 0.6951286 0.6218976 0.5448979 0.6590875 0.70940936 1.2846537 1.0138433
1.045085 0.9629239 1.0060247 0.78633374 1.1594359 0.871014 0.83949673 1.0
1.0 0.85344213 0.977658 1.2186751 0.5844222 1.1827221 1.3819579 0.87106544
0.8337231 1.0348265 0.98460275 0.88987386 1.3099302 1.02389 0.5414418 1.0
1.0 0.6838073 0.88271135 0.9352954 1.603445 0.7474788 0.8078314 0.9891628
0.8381495 0.70285624 0.5860895 1.0287727 0.9916764 0.85546905 0.6409924 1.0
1.0 0.76116854 1.1314542 1.0712762 1.3626609 1.1943439 1.1240033 1.0115587
1.1030122 0.6801191 0.58655196 0.86971533 1.0076791 1.2399361 0.55149376 1.0
1.0 0.98534393 0.7188144 1.1378187 1.0686125 0.8069211 0.8031742 1.0725675
1.0295948 1.2900994 0.8511891 1.2358972 0.97242457 0.77430844 0.8963042 1.0
1.0 0.7915642 1.0262768 1.0344764 1.2196914 1.5837618 1.336287 1.3122678
1.2032014 0.69933873 1.2392179 1.1147583 1.174675 0.870279 0.8787836 1.0
1.0 1.0452392 0.7881855 0.84798884 0.7837702 1.2337639 1.1298063 1.1633819
1.310466 0.8938735 1.1155936 1.8038008 1.0580982 0.5980533 0.83736396 1.0
1.0 0.96960217 1.4794593 1.0184058 1.0878819 1.2537353 0.5555405 0.99016464
1.1839918 1.152244 0.9415079 1.0474684 0.7179234 1.2555196 1.0027202 1.0
1.0 0.643615 1.2368926 0.9625759 0.9488413 1.0566279 0.68560433 1.4022504
1.143598 0.7383891 1.019089 0.72957224 1.0106966 0.78084993 0.85449654 1.0
1.0 0.84212464 0.82596225 1.2208996 1.1405518 0.85952413 1.2611836 0.9473126
0.91743135 0.677419 0.98824954 0.8795662 1.1419238 1.0058045 0.87016284 1.0
1.0 1.052454 1.1160808 1.0431944 1.0349693 1.01999 1.2543523 0.5252281
0.7472827 1.035196 0.9089139 0.61354125 0.72678727 1.0581945 0.86256236 1.0
1.0 0.7437102 1.121016 0.79806936 0.70027065 0.90282035 0.78662634 0.81362295
0.8913278 0.93261164 0.7056578 0.8427515 0.3619822 0.71405184 0.7287036 1.0
1.0 1.0 1.0 1.0 1.0 1.0 1.0 1.0
1.0 1.0 1.0 1.0 1.0 1.0 1.0 1.0
00000000: 0000 803f 0000 803f 0000 803f 0000 803f
00000010: 0000 803f 0000 803f 0000 803f 0000 803f
00000020: 0000 803f 0000 803f 0000 803f 0000 803f
00000030: 0000 803f 0000 803f 0000 803f 0000 803f
00000040: 0000 803f 5ecd 463f bb5c 933f 8d15 1b3f
00000050: 5a29 a43f 9bf2 013f d0d5 513f 5233 553f
00000060: 2244 7d3f b810 533f 33a2 743f 0f5c 833f
00000070: a875 7d3f 9e75 8a3f a470 283f 0000 803f
00000080: 0000 803f e51b 543f 3f6d 3d3f 33ab 463f
00000090: 9ad6 3e3f cfd7 5e3f faef 963f 44aa 693f
000000a0: 6629 3e3f b0c8 753f 5649 4a3f 154e 873f
000000b0: 1f8e 843f 400c 823f d8d0 923f 0000 803f
000000c0: 0000 803f f3f3 313f ae34 1f3f 6e7e 0b3f
000000d0: f5b9 283f da9b 353f 886f a43f 9ec5 813f
000000e0: 58c5 853f 2e82 763f 6bc5 803f 2b4d 493f
000000f0: 6568 943f c6fa 5e3f 42e9 563f 0000 803f
00000100: 0000 803f 2f7b 5a3f cb47 7a3f 8cfd 9b3f
00000110: b19c 153f 7063 973f ffe3 b03f 25fe 5e3f
00000120: e16e 553f 3275 843f ed0e 7c3f c6ce 633f
00000130: cbab a73f d40e 833f ee9b 0a3f 0000 803f
00000140: 0000 803f ff0d 2f3f 5ff9 613f 856f 6f3f
00000150: b03d cd3f c55a 3f3f 0ace 4e3f c639 7d3f
00000160: f790 563f 63ee 333f f609 163f d3ae 833f
00000170: 81de 7d3f 0500 5b3f 1418 243f 0000 803f
00000180: 0000 803f f1db 423f 7ed3 903f 941f 893f
00000190: ac6b ae3f 43e0 983f 57df 8f3f c17a 813f
000001a0: 812f 8d3f 491c 2e3f 4528 163f aaa5 5e3f
000001b0: a1fb 803f 3ab6 9e3f b22e 0d3f 0000 803f
000001c0: 0000 803f 803f 7c3f 3804 383f 0ba4 913f
000001d0: 4bc8 883f 6292 4e3f d39c 4d3f e449 893f
000001e0: c3c9 833f fa21 a53f 87e7 593f e131 9e3f
000001f0: d1f0 783f 1439 463f 3174 653f 0000 803f
00000200: 0000 803f f4a3 4a3f 0a5d 833f b969 843f
00000210: d91e 9c3f b5b8 ca3f 740b ab3f 64f8 a73f
00000220: 8102 9a3f dd07 333f b19e 9e3f 66b0 8e3f
00000230: c05b 963f 9bca 5e3f f6f7 603f 0000 803f
00000240: 0000 803f 66ca 853f 86c6 493f cc15 593f
00000250: 2aa5 483f faeb 9d3f 7e9d 903f b3e9 943f
00000260: 5abd a73f e5d4 643f c5cb 8e3f f2e2 e63f
00000270: c36f 873f 051a 193f 7c5d 563f 0000 803f
00000280: 0000 803f d937 783f ec5e bd3f 1f5b 823f
00000290: b73f 8b3f 667a a03f e737 0e3f 6e7b 7d3f
000002a0: 0b8d 973f bb7c 933f a906 713f 7213 863f
000002b0: d4c9 373f deb4 a03f 2359 803f 0000 803f
000002c0: 0000 803f f4c3 243f 7f52 9e3f 606b 763f
000002d0: 43e7 723f 953f 873f c483 2f3f f17c b33f
000002e0: 6b61 923f 1107 3d3f 8271 823f 3fc5 3a3f
000002f0: 825e 813f c8e5 473f 49c0 5a3f 0000 803f
00000300: 0000 803f 7b95 573f 4372 533f 7046 9c3f
00000310: 9afd 913f c609 5c3f 776e a13f 1483 723f
00000320: c8dc 6a3f 556b 2d3f ecfd 7c3f 402b 613f
00000330: 8f2a 923f 34be 803f fec2 5e3f 0000 803f
00000340: 0000 803f d0b6 863f bcdb 8e3f 6587 853f
00000350: e079 843f 088f 823f 9e8e a03f 5975 063f
00000360: eb4d 3f3f 4d81 843f 95ae 683f 0a11 1d3f
00000370: bb0e 3a3f eb72 873f e3d0 5c3f 0000 803f
00000380: 0000 803f cb63 3e3f 747d 8f3f 464e 4c3f
00000390: f044 333f 3c1f 673f 5860 493f 9849 503f
000003a0: 0f2e 643f a3bf 6e3f fda5 343f 90be 573f
000003b0: bb55 b93e 1acc 363f 528c 3a3f 0000 803f
000003c0: 0000 803f 0000 803f 0000 803f 0000 803f
000003d0: 0000 803f 0000 803f 0000 803f 0000 803f
000003e0: 0000 803f 0000 803f 0000 803f 0000 803f
000003f0: 0000 803f 0000 803f 0000 803f 0000 803f

encoder_conv_00.0.weight f4 [32, 4, 3, 3]
0.1798447 0.07622928 0.11953116 0.10570854 0.023435304 0.06746652 0.1434654 -0.13503422
-0.014879671 0.028139565 0.24252436 0.07241942 0.1313554 0.21436922 0.1437632 0.1915164
-0.0032598085 -0.030758068 -0.27536395 -0.24837393 0.037704147 -0.1326253 -0.08232681 -0.31566337
-0.2800054 -0.26745772 -0.033927623 -0.36040363 0.07631133 -0.004350889 -0.098916665 0.08741808
0.26190585 -0.27674758 -0.08542964 -0.16058306 0.1920085 0.033425782 -0.22785103 -0.13263264
0.10672458 -0.1349071 -0.0010415579 0.050555717 0.058143035 -0.085444644 -0.08542864 -0.12390274
0.00063110393 0.18065274 -0.02422463 -0.10821367 0.18893975 0.071434006 -0.17113213 0.08805216
0.18759902 0.30859408 -0.25811374 -0.027389431 -0.2156068 -0.0659282 -0.1126485 -0.13472031
-0.06893061 0.22254393 0.1418343 0.04324861 -0.105929926 0.0052768877 -0.07451974 -0.14612749
-0.24704865 -0.021140207 0.13207135 0.22264001 -0.06565533 0.021945199 0.16613029 -0.15137886
0.039900377 0.2467365 0.005118322 -0.21210867 -0.17987168 0.18445204 0.19081666 0.040361654
-0.13376807 0.06674274 0.07671709 0.14497404 -0.06813095 -0.020202978 -0.042385507 -0.022869332
-0.09868786 0.044882517 -0.25102934 -0.06861862 0.14881982 -0.059081543 -0.004933664 -0.08905126
-0.1979818 0.10439161 0.2604642 -0.12788199 0.098147795 -0.21921435 0.10555862 -0.05315536
0.19996232 0.07107879 -0.1408688 0.13656205 0.09697456 0.17056832 0.15369213 -0.026721623
0.0027918073 0.06485769 -0.020552104 -0.16600044 -0.027738456 0.21821022 -0.056091815 0.25573048
0.13170756 0.11840315 0.03761808 -0.029086316 0.120052405 -0.22109145 0.12369923 -0.16654415
-0.28660083 -0.08627549 0.30307674 -0.13851166 0.035264336 0.088046044 0.1558866 -0.054223787
-0.08146023 -0.17485113 -0.050887078 -0.2208398 -0.110698156 -0.048731506 -0.06141888 -0.00043557453
0.010903093 0.14740863 0.13684364 -0.06450151 0.079887636 -0.16733137 -0.0632216 0.032260463
0.13907954 -0.2099515 0.06325772 0.13940771 0.16197737 0.0106477 0.27339974 0.26641932
-0.17112578 0.19420253 -0.17060453 -0.0025244607 0.20701379 -0.15241925 -0.07175661 0.26091802
0.062652916 -0.10553345 -0.12166665 -0.1394583 0.19439773 -0.12069616 0.13807216 0.02361874
-0.053990677 -0.19775045 -0.10674946 0.1694889 0.063402295 0.15178701 0.03097442 0.04446079
0.10309523 0.13073915 0.024938425 -0.16412921 0.001671723 0.13643295 -0.026694965 0.14383706
-0.04817676 0.0010839235 0.16837522 -0.21159829 0.30229175 0.07075629 -0.017606942 -0.1651254
0.056110054 0.13021024 0.118956625 -0.27858594 0.26161864 0.0022947483 0.14391692 0.17140283
-0.1571649 0.01108266 -0.2095841 0.0067516854 -0.08125404 0.068050735 -0.063040875 0.20243652
-0.033466738 -0.13651079 0.047614068 -0.06801333 -0.22153775 0.07500147 0.18156457 -0.17506476
-0.017446978 0.0062687993 0.066364095 -0.14869204 -0.05116134 0.048359573 0.014289384 -0.12129734
-0.14437555 0.19399758 0.25915754 0.11064629 0.18885863 0.32497498 0.013512695 -0.044358242
-0.08435627 0.32579342 -0.07734686 -0.14806798 -0.071302 0.14055806 0.009598775 0.09589308
00000000: 3629 383e 191e 9c3d c1cc f43d b87d d83d
00000010: 65fb bf3c e32b 8a3d 98e8 123e 6946 0abe
00000020: ddc9 73bc f284 e63c 4e58 783e a250 943d
00000030: 0882 063e 9b83 5b3e a936 133e e01c 443e
00000040: 83a2 55bb 58f8 fbbc 81fc 8cbe bc55 7ebe
00000050: aa6f 1a3d edce 07be f59a a8bd a19e a1be
00000060: de5c 8fbe 38f0 88be b1f7 0abd d386 b8be
00000070: 1d49 9c3d e791 8ebb d294 cabd 4008 b33d
00000080: 8618 863e dcb1 8dbe bcf5 aebd e36f 24be
00000090: e09d 443e 79e9 083d c851 69be dad0 07be
000000a0: 6b92 da3d 1625 0abe e284 88ba 8313 4f3d
000000b0: 6427 6e3d 9afd aebd 36f5 aebd b8c0 fdbd
000000c0: ab70 253a 08fd 383e bb72 c6bc 219f ddbd
000000d0: 6c79 413e fe4b 923d 433d 2fbe b154 b43d
000000e0: f519 403e 0b00 9e3e 7c27 84be cd5f e0bc
000000f0: 07c8 5cbe 5d05 87bd 42b4 e6bd 1ff4 09be
00000100: 7e2b 8dbd 8ee2 633e 033d 113e 7425 313d
00000110: caf1 d8bd bee9 ac3b ce9d 98bd 72a2 15be
00000120: 52fa 7cbe 3a2e adbc b63d 073e befb 633e
00000130: 4d76 86bd 6bc6 b33c 0f1e 2a3e 0f03 1bbe
00000140: 946e 233d 7ea8 7c3e 99b7 a73b 0433 59be
00000150: 4830 38be ffe0 3c3e 7165 433e 4352 253d
00000160: 7ffa 08be 6bb0 883d da1d 9d3d 1374 143e
00000170: 3d88 8bbd b780 a5bc 6d9c 2dbd 7758 bbbc
00000180: dc1c cabd bbd6 373d eb86 80be eb87 8cbd
00000190: 3964 183e 7dff 71bd 93aa a1bb 8260 b6bd
000001a0: bebb 4abe 45cb d53d 905b 853e 7ff3 02be
000001b0: b601 c93d ba79 60be 1e2f d83d 6fb9 59bd
000001c0: ecc2 4c3e c291 913d e93f 10be ecd6 0b3e
000001d0: 999a c63d 76a9 2e3e 7861 1d3e 4ee7 dabc
000001e0: c1f6 363b 1cd4 843d e35c a8bc 05fc 29be
000001f0: c23b e3bc 8072 5f3e 88c0 65bd 1bef 823e
00000200: 59de 063e 5a7d f23d 6a15 1a3d 6d46 eebc
00000210: 09de f53d cc65 62be 0656 fd3d 8d8a 2abe
00000220: 58bd 92be 34b1 b0bd e02c 9b3e 00d6 0dbe
00000230: 5671 103d 7c51 b43d bda0 1f3e c319 5ebd
00000240: 9fd4 a6bd 2d0c 33be f86e 50bd d423 62be
00000250: b7b5 e2bd b09a 47bd 5d92 7bbd d35d e4b9
00000260: e3a2 323c 4af2 163e bd20 0c3e 5e19 84bd
00000270: 219c a33d ea58 2bbe 547a 81bd 8c23 043d
00000280: de6a 0e3e 87fd 56be 438d 813d e5c0 0e3e
00000290: 65dd 253e b173 2e3c 0dfb 8b3e 1d68 883e
000002a0: 993b 2fbe 07dd 463e f4b2 2ebe 6c71 25bb
000002b0: 6cfb 533e cb13 1cbe 21f5 92bd 0c97 853e
000002c0: 2c50 803d ec21 d8bd 5d2c f9bd 28ce 0ebe
000002d0: 3310 473e 8c2f f7bd ca62 0d3e 167c c13c
000002e0: 5425 5dbd 187f 4abe 769f dabd 808e 2d3e
000002f0: 10d9 813d 0e6e 1b3e 11be fd3c 841c 363d
00000300: 9823 d33d 7ce0 053e ab4b cc3c 7d11 28be
00000310: b71d db3a 14b5 0b3e 66af dabc 064a 133e
00000320: ff54 45bd 7012 8e3a 8e6a 2c3e 39ad 58be
00000330: fcc5 9a3e ace8 903d 6f3c 90bc a216 29be
00000340: a8d3 653d d555 053e 889f f33d d1a2 8ebe
00000350: e1f2 853e 7d63 163b f55e 133e 3984 2f3e
00000360: d6ef 20be 0c94 353c 379d 56be 3e3d dd3b
00000370: 8568 a6bd 2f5e 8b3d 931b 81bd 854b 4f3e
00000380: 6b14 09bd 7cc9 0bbe f806 433d 934a 8bbd
00000390: cbda 62be 5f9a 993d 10ec 393e 2d44 33be
000003a0: f7ec 8ebc 806a cd3b e6e9 873d ba42 18be
000003b0: 8e8e 51bd b014 463d 051e 6a3c bd6a f8bd
000003c0: 2fd7 13be 4da7 463e 4cb0 843e 869a e23d
000003d0: 2864 413e 1f63 a63e 5a64 5d3c fdb0 35bd
000003e0: fbc2 acbd 65ce a63e 0868 9ebd 229f 17be
000003f0: c806 92bd 74ee 0f3e 2e44 1d3c 9763 c43d

encoder_conv_00.0.bias f4 [32]
-0.15421773 0.10197513 0.16365947 -0.0089806365 0.12906465 -0.0766357 -0.07692028 0.11637542
-0.05556506 -0.14949296 0.17563987 0.020078469 -0.11682151 0.014669155 -0.06624693 -0.016401235
0.10405116 -0.03683509 -0.10239549 0.13802585 0.12818784 -0.046032105 0.12777895 -0.15906076
-0.14356442 -0.08229367 -0.13232398 0.21761563 -0.17621434 -0.08105891 -0.18131807 -0.10938811
00000000: 41eb 1dbe 56d8 d03d 5996 273e 8523 13bc
00000010: 8629 043e 2ef3 9cbd 6188 9dbd 3c56 ee3d
00000020: 3098 63bd af14 19be f0da 333e 9a7b a43c
00000030: 1e40 efbd e556 703c 78ac 87bd e25b 86bc
00000040: c618 d53d 64e0 16bd bab4 d1bd a656 0d3e
00000050: ac43 033e 298c 3cbd 7cd8 023e d3e0 22be
00000060: 8d02 13be 9589 a8bd f07f 07be a2d6 5e3e
00000070: 8871 34be 3702 a6bd 72ab 39be e006 e0bd

encoder_conv_00.1.weight f4 [32]
0.8580135 1.0484617 1.1873543 0.99758816 0.9365972 1.1456475 1.1646001 1.1593486
0.87323534 0.98015654 0.74878377 0.9284374 1.0020608 0.940461 0.9249843 0.92230046
1.0569844 1.0425451 0.76774067 1.0319177 1.1889694 0.96670115 1.1734877 1.0502827
0.97516453 1.1790801 0.9447976 1.0577713 0.76539594 0.9315494 1.106879 0.7374056
00000000: c6a6 5b3f fe33 863f 3afb 973f f061 7f3f
00000010: d6c4 6f3f 94a4 923f 9e11 953f 8965 943f
00000020: 5a8c 5f3f 8aeb 7a3f 4bb0 3f3f 13ae 6d3f
00000030: 8743 803f 0dc2 703f c5cb 6c3f e21b 6c3f
00000040: 444b 873f 1e72 853f a78a 443f e115 843f
00000050: 2630 983f ba79 773f d834 963f aa6f 863f
00000060: 62a4 793f 19ec 963f 41de 713f 0d65 873f
00000070: fdf0 433f 057a 6e3f 36ae 8d3f 9dc6 3c3f

encoder_conv_00.1.bias f4 [32]
-0.30078512 -0.11627051 -0.22100297 -0.3501942 -0.21123809 -0.1073472 -0.035228316 -0.10966047
-0.18500051 0.019977631 -0.30417794 -0.11990741 -0.14571851 -0.2223311 -0.13834462 0.06383186
-0.07773949 -0.13666725 -0.29853627 -0.11671862 -0.081075974 -0.043652043 -0.0782817 -0.18225634
-0.24401417 0.06651134 -0.070751175 -0.2805783 -0.27955228 -0.17543872 -0.0105748335 -0.29801932
00000000: 8200 9abe 3c1f eebd 9a4e 62be a74c b3be
00000010: cc4e 58be d9d8 dbbd 914b 10bd ab95 e0bd
00000020: c670 3dbe 21a8 a33c 36bd 9bbe 0492 f5bd
00000030: 3c37 15be c4aa 63be 36aa 0dbe 47ba 823d
00000040: e235 9fbd 80f2 0bbe bfd9 98be 2c0a efbd
00000050: 290b a6bd 7ccc 32bd 2852 a0bd 68a1 3abe
00000060: dade 79be 1937 883d fee5 90bd f5a7 8fbe
00000070: 7a21 8fbe 35a6 33be 1142 2dbc fd95 98be

encoder_conv_00.1.running_mean f4 [32]
-0.13082336 0.026154958 0.19651465 0.23227552 0.011658782 0.19883402 -0.091272295 0.21652816
-0.19822967 -0.24680653 0.42012733 0.08900389 -0.07085153 0.039336167 0.010737091 0.0024296546
0.019946089 -0.23356816 -0.24725296 0.17626008 -0.08436663 -0.37694913 0.09644543 -0.29845884
-0.23364435 -0.14275232 0.1283863 -0.066417284 -0.41540477 -0.52624303 -0.30503204 -0.43346158
00000000: 8ff6 05be ec42 d63c 233b 493e a2d9 6d3e
00000010: 7a04 3f3c 259b 4b3e f8ec babd 8fb9 5d3e
00000020: b8fc 4abe daba 7cbe ee1a d73e ac47 b63d
00000030: 9b1a 91bd f61e 213d a0ea 2f3c d73a 1f3b
00000040: fb65 a33c 7e2c 6fbe e12f 7dbe 867d 343e
00000050: 69c8 acbd 7aff c0be 2e85 c53d 99cf 98be
00000060: 7740 6fbe aa2d 12be b377 033e c905 88bd
00000070: efaf d4be ddb7 06bf 292d 9cbe adee ddbe

encoder_conv_00.1.running_var f4 [32]
0.07242877 0.01588863 0.016982954 0.013767546 0.0747114 0.015304779 0.020920932 0.010622268
0.025841247 0.04695103 0.025766935 0.012317743 0.016244084 0.018538168 0.012206715 0.012344444
0.00925215 0.015805228 0.03666717 0.018115368 0.029277187 0.017278532 0.014165139 0.022062823
0.01076475 0.015475317 0.03036601 0.014872848 0.027526433 0.021592977 0.014480485 0.03801721
00000000: 8955 943d df28 823c d61f 8b3c 4691 613c
00000010: 4a02 993d e5c0 7a3c 6062 ab3c 0509 2e3c
00000020: 06b1 d33c b94f 403d 2e15 d33c 5cd0 493c
00000030: 5012 853c 5bdd 973c acfe 473c 5a40 4a3c
00000040: 5496 173c f779 813c 5030 163d ae66 943c
00000050: b6d6 ef3c b58b 8d3c e614 683c 18bd b43c
00000060: a25e 303c 2f8c 7d3c 23c2 f83c 3fad 733c
00000070: 1d7f e13c c1e3 b03c 8e3f 6d3c efb7 1b3d

encoder_conv_01.0.weight f4 [32, 32, 3, 3]
-0.04408853 -0.051450945 -0.13032056 0.03324406 -0.030869454 -0.08550899 -0.012709437 -0.042715266
-0.0238843 -0.12803985 -0.03323077 -0.19871467 -0.027755134 -0.16836303 -0.0035120165 0.028256638
-0.10432204 0.21693079 -0.08673113 0.09410418 -0.1417043 -0.0026390012 -0.021709405 0.031543303
0.11855336 -0.049356673 0.15296215 -0.08540677 0.012524462 0.16328494 -0.028419008 -0.11712339
0.08706263 -0.09636235 -0.017100504 0.016206954 0.13187906 0.14153482 -0.005004987 0.0039577954
0.21981053 -0.05668749 0.00589598 -0.031939708 0.048312753 -0.01199181 -0.0067881565 -0.03378181
0.054973796 -0.00784036 -0.18518408 -0.0035097422 0.07693832 -0.17675693 0.20864433 -0.21951921
0.02668804 -0.18175946 -0.029167995 0.12542237 0.01706249 -0.01986326 -0.15897647 -0.06810034
-0.036150206 0.012982846 -0.088046476 -0.14983903 0.26151365 -0.051402602 0.10060806 -0.2215222
0.05906323 -0.024658652 -0.07372724 0.034607988 -0.12955317 -0.10431003 -0.010493641 -0.028370237
-0.0057344413 0.14854598 -0.1291978 -0.12098002 0.066634215 -0.06087082 0.011642537 -0.079080775
-0.074250795 0.016450437 0.026624767 0.056555636 -0.10476602 0.12477317 -0.11341726 -0.24077833
-0.027973508 0.10188405 0.021414662 0.031122236 -0.012079938 0.065511644 0.08910366 -0.12633952
0.03524829 0.061738662 -0.14659804 0.17030491 0.33146182 -0.07805203 0.089878045 -0.023328917
0.028099755 -0.07428763 -0.13882157 -0.069324665 -0.055952657 -0.080855116 -0.1021127 -0.21885037
0.07261201 -0.14576417 0.06748478 0.1411095 0.076634414 0.16702409 -0.03164457 -0.14269695
0.055793453 0.0567203 0.031041909 -0.0077754287 -0.14670531 0.05963507 0.055880804 -0.06512647
0.048318524 0.036049858 -0.07236895 0.032949597 0.052308045 -0.23126711 0.12357174 -0.14432284
-0.0767948 0.002677719 -0.059134968 -0.008355798 -0.0467765 0.09069314 -0.076895624 0.04258473
0.078805 0.03331701 -0.24381289 0.21627238 0.12116076 -0.08276336 -0.080022335 -0.29529196
0.034310866 -0.0003243592 -0.0831064 -0.0539605 -0.054861117 0.07688751 0.04816704 -0.04393682
-0.11077022 0.06829579 -0.16024451 -0.20154005 -0.09867959 0.023698721 0.01673766 -0.037046816
0.17644677 -0.059682433 0.04247408 0.18768984 -0.05881861 -0.06108426 -0.030859826 0.06873828
0.03712513 0.06639026 -0.025158415 -0.1453754 -0.04815842 0.11044832 -0.066210136 -0.13983487
-0.03093939 -0.086374536 0.07753897 -0.0035876757 -0.35875952 0.014015304 -0.1084733 0.14051999
-0.025474079 -0.1413483 0.03136045 0.046878118 -0.17005919 0.19890012 0.1131071 0.07051303
-0.07257668 -0.0002469872 0.08922976 0.007841482 -0.03248682 0.046540827 -0.07015022 -0.10073687
0.08353907 -0.03126622 -0.061521165 0.017861038 -0.0678503 -0.008608356 -0.055991035 -0.14078957
0.1291633 -0.37695158 0.10376751 -0.10685943 0.052798014 0.16228591 -0.011011882 0.118899636
-0.0051014256 0.20618847 -0.120904684 -0.0858419 0.003781381 0.13643974 0.02615033 -0.01921179
0.073379144 -0.1542357 -0.0239095 -0.22098449 0.030819504 0.056733206 -0.22552037 -0.122453175
-0.03065015 0.03803841 -0.09447262 0.13883069 0.1480346 -0.0242061 -0.1135036 0.04756962
00000000: 2d96 34bd 3abe 52bd c172 05be ec2a 083d
00000010: f0e1 fcbc 561f afbd 3e3b 50bc 34f6 2ebd
00000020: 02a9 c3bc e11c 03be fd1c 08bd dc7b 4bbe
00000030: bc5e e3bc 5c67 2cbe dc29 66bb 777a e73c
00000040: cba6 d5bd 1b23 5e3e 17a0 b1bd b1b9 c03d
00000050: ef1a 11be 18f3 2cbb ecd7 b1bc 8d33 013d
00000060: 1bcc f23d 392a 4abd 1ca2 1c3e bfe9 aebd
00000070: 6733 4d3c 2b34 273e fbce e8bc 63de efbd
00000080: e44d b23d a059 c5bd 5b16 8cbc 72c4 843c
00000090: 4e0b 073e 81ee 103e e000 a4bb 65b0 813b
000000a0: 0316 613e 2431 68bd 1133 c13b 36d3 02bd
000000b0: 98e3 453d 4c79 44bc 2f6f debb cc5e 0abd
000000c0: 342c 613d da74 00bc e5a0 3dbe b403 66bb
000000d0: d791 9d3d c5ff 34be dca6 553e a5c9 60be
000000e0: e0a0 da3c 271f 3abe b8f1 eebc b96e 003e
000000f0: a3c6 8b3c 47b8 a2bc baca 22be 3178 8bbd
00000100: 3d12 14bd 01b6 543c b651 b4bd 676f 19be
00000110: 1ee5 853e 898b 52bd 990b ce3d b7d6 62be
00000120: 49ec 713d f100 cabc 4ffe 96bd 1bc1 0d3d
00000130: 96a9 04be 7fa0 d5bd 85ed 2bbc b368 e8bc
00000140: fbe7 bbbb 701c 183e 6e4c 04be 5fc4 f7bd
00000150: 8577 883d ae53 79bd 57c0 3e3c 1af5 a1bd
00000160: cd10 98bd 11c3 863c 2f1c da3c e2a6 673d
00000170: 918f d6bd 1389 ff3d 4f47 e8bd 988e 76be
00000180: b328 e5bc 96a8 d03d cd6d af3c 0ff4 fe3c
00000190: efea 45bc f82a 863d fb7b b63d 265f 01be
000001a0: 8360 103d aee1 7c3d cc1d 16be 6964 2e3e
000001b0: 5db5 a93e bed9 9fbd fb11 b83d 491c bfbc
000001c0: 7531 e63c 1d24 98bd 3e27 0ebe 17fa 8dbd
000001d0: 9d2e 65bd 5e97 a5bd 7720 d1bd 501a 60be
000001e0: 9bb5 943d 3443 15be 7635 8a3d 027f 103e
000001f0: 81f2 9c3d 5d08 2b3e bd9d 01bd 261f 12be
00000200: ad87 643d 8c53 683d 9a4b fe3c 06c9 febb
00000210: eb39 16be e743 743d 45e3 643d 0761 85bd
00000220: a5e9 453d 04a9 133d 2c36 94bd 28f6 063d
00000230: f640 563d 49d1 6cbe 2e13 fd3d 5ec9 13be
00000240: 9846 9dbd ac7c 2f3b 8237 72bd c2e6 08bc
00000250: b798 3fbd 53bd b93d 747b 9dbd 536d 2e3d
00000260: 8464 a13d 6b77 083d 16aa 79be 8276 5d3e
00000270: 2223 f83d d67f a9bd c0e2 a3bd 8230 97be
00000280: 8d89 0c3d c10e aab9 b033 aabd af05 5dbd
00000290: 0db6 60bd 3377 9d3d cd4a 453d 18f7 33bd
000002a0: 7fdb e2bd aade 8b3d 2317 24be 8460 4ebe
000002b0: 8618 cabd d223 c23c 6b1d 893c 67be 17bd
000002c0: 76ae 343e 9175 74bd 4df9 2d3d c431 403e
000002d0: c8eb 70bd 7d33 7abd bfcd fcbc a8c6 8c3d
000002e0: 8510 183d 9ef7 873d 0519 cebc 4add 14be
000002f0: c341 45bd bb32 e23d 2e99 87bd df30 0fbe
00000300: 9b74 fdbc 22e5 b0bd c0cc 9e3d 361f 6bbb
00000310: 54af b7be 72a0 653c 4027 debd 79e4 0f3e
00000320: 04af d0bc 9cbd 10be d173 003d 4503 403d
00000330: ff23 2ebe 79ac 4b3e b2a4 e73d 2369 903d
00000340: 15a3 94bd 107e 81b9 18be b63d 8f79 003c
00000350: e610 05bd 98a1 3e3d ebaa 8fbd 224f cebd
00000360: 8816 ab3d 0211 00bd 9efd 7bbd 5051 923c
00000370: 19f5 8abd 100a 0dbc db56 65bd 242b 10be
00000380: 6243 043e ccff c0be 0f84 d43d 1ed9 dabd
00000390: bb42 583d 472e 263e 2e6b 34bc a781 f33d
000003a0: dc29 a7bb 1223 533e e09c f7bd e1cd afbd
000003b0: 0cd1 773b dcb6 0b3e 3839 d63c 0b62 9dbc
000003c0: ce47 963d f7ef 1dbe dbdd c3bc c249 62be
000003d0: 2f79 fc3c 1461 683d d0ee 66be bbc8 fabd
000003e0: 0616 fbbc 2ace 1b3d dc7a c1bd a229 0e3e
000003f0: 6296 173e df4b c6bc 9374 e8bd 5dd8 423d

encoder_conv_01.0.bias f4 [32]
0.059576873 -0.03797612 0.031735428 -0.01322867 -0.01787894 -0.005972116 -0.036687892 0.006048841
0.044765238 -0.02665573 0.055517163 -0.011991833 -0.013092345 -0.048419673 0.03398425 -0.043640547
-0.015983488 0.027341308 0.062923454 -0.02624922 -0.019097956 -0.04483336 0.034396935 -0.002485524
0.013943986 0.045908336 -0.028006151 -0.012673532 0.052512217 -0.04653092 -0.058124688 0.030835845
00000000: e106 743d d98c 1bbd 02fd 013d 10bd 58bc
00000010: db76 92bc bdb1 c3bb 0b46 16bd 5b35 c63b
00000020: c15b 373d 1e5d dabc f765 633d 6579 44bc
00000030: 4681 56bc b553 46bd 1233 0b3d 6ec0 32bd
00000040: ceef 82bc e1fa df3c 03de 803d 9b08 d7bc
00000050: 5173 9cbc 2fa3 37bd cde3 0c3d 2ce4 22bb
00000060: 5175 643c 610a 3c3d 286d e5bc a5a4 4fbc
00000070: 0d17 573d 3597 3ebd 2714 6ebd 749b fc3c

encoder_conv_01.1.weight f4 [32]
1.1832962 1.1374024 1.0961787 1.0563784 1.00923 0.9210376 1.0590916 0.9399194
0.9711629 1.0335294 0.9323067 1.0441169 0.94443005 1.0336833 1.0467439 1.0767576
1.0236919 1.1419454 0.91731477 1.0596383 0.9474441 0.82940876 1.0195719 0.931452
0.91800827 0.9356709 1.0307211 1.0875272 1.1042906 1.0294538 1.0057791 1.0800142
00000000: 4076 973f 6796 913f 954f 8c3f 6837 873f
00000010: 732e 813f 1fc9 6b3f 5090 873f 8f9e 703f
00000020: 229e 783f b14a 843f a7ab 6e3f 9fa5 853f
00000030: 2bc6 713f bc4f 843f b4fb 853f 31d3 893f
00000040: 5608 833f 442b 923f 24d5 6a3f 3aa2 873f
00000050: b28b 723f 2254 543f 5581 823f a373 6e3f
00000060: 9702 6b3f 2188 6f3f abee 833f 1734 8b3f
00000070: 6559 8d3f 24c5 833f 5fbd 803f e83d 8a3f

encoder_conv_01.1.bias f4 [32]
0.04600834 -0.049981233 -0.09301337 -0.084017545 -0.0677727 -0.19038413 -0.18895257 -0.14960657
-0.12207441 -0.10614872 -0.2903478 -0.053865336 -0.21004438 -0.17586161 -0.119593784 -0.034690958
-0.05825804 -0.037313152 -0.112417616 -0.06737967 -0.17872386 -0.16675153 -0.027492825 -0.18424635
-0.20629449 -0.1549381 -0.028107885 -0.028303277 -0.14226167 -0.05717937 -0.1746017 -0.0345319
00000000: 3e73 3c3d 1fb9 4cbd cb7d bebd 6411 acbd
00000010: 6acc 8abd 0ff4 42be c87c 41be 7732 19be
00000020: 2602 fabd 8064 d9bd 78a8 94be e6a1 5cbd
00000030: e015 57be 1115 34be 96ed f4bd 1b18 0ebd
00000040: fc9f 6ebd add5 18bd 353b e6bd 5afe 89bd
00000050: 6303 37be eac0 2abe a238 e1bc 13ab 3cbe
00000060: dd3e 53be 18a8 1ebe 8242 e6bc 46dc e7bc
00000070: 0bad 11be ea34 6abd caca 32be 5271 0dbd

encoder_conv_01.1.running_mean f4 [32]
-1.0351399 -0.901241 0.111761086 -0.8348408 -1.1699796 -0.10898873 0.27895623 -1.0119258
-0.035765667 0.22332321 0.517379 -1.4810367 0.6998172 0.14376985 -0.19793622 -1.0319766
0.16196638 -0.73025656 -0.06827017 -1.3214601 -1.0344629 -0.1528566 -0.5319612 0.041898675
-0.70037425 0.550808 -0.562787 0.42835674 -0.34871617 -0.42906117 -0.62142754 -0.86815
00000000: 777f 84bf bbb7 66bf ffe2 e43d 20b8 55bf
00000010: e4c1 95bf 7c35 dfbd 5ad3 8e3e c986 81bf
00000020: 057f 12bd d7ae 643e f372 043f 9c92 bdbf
00000030: 3827 333f 6738 133e cbaf 4abe cf17 84bf
00000040: 84da 253e 18f2 3abf 3bd1 8bbd 9b25 a9bf
00000050: 4869 84bf 7186 1cbe 9c2e 08bf f29d 2b3d
00000060: ba4b 33bf c101 0d3f cf12 10bf 9351 db3e
00000070: ed8a b2be e8ad dbbe e015 1fbf 143f 5ebf

encoder_conv_01.1.running_var f4 [32]
2.4769945 1.6595094 2.224481 2.8671482 3.7985435 2.2155783 4.0537124 2.953356
1.977835 1.8464457 2.021293 5.2085595 1.9376769 2.2705472 2.2508175 3.544921
2.4360769 1.8323164 3.3723783 1.9189026 3.6027818 2.5705822 2.5626185 3.8846602
3.164479 2.4503865 1.9714034 1.6025294 1.8023965 1.8022105 1.4985315 1.8047725
00000000: 1487 1e40 ce6a d43f e65d 0e40 5b7f 3740
00000010: 561b 7340 09cc 0d40 03b8 8140 c903 3d40
00000020: b329 fd3f 5558 ec3f dd5c 0140 85ac a640
00000030: cc05 f83f a550 1140 650d 1040 fcdf 6240
00000040: afe8 1b40 5889 ea3f 0cd5 5740 9a9e f53f
00000050: fa93 6640 6b84 2440 f101 2440 469e 7840
00000060: d386 4a40 22d3 1c40 f256 fc3f af1f cd3f
00000070: eeb4 e63f d5ae e63f e1cf bf3f c902 e73f

encoder_conv_02.0.weight f4 [32, 32, 3, 3]
0.02235525 0.24387375 0.08217156 -0.025197418 -0.19278483 0.020295383 -0.14684317 0.07451776
-0.030571656 0.061188463 -0.010037092 0.15596001 -0.17062183 -0.12553413 -0.3244687 -0.0887525
-0.06428448 0.060215417 -0.061862227 0.07495884 -0.18592724 0.10087747 0.0018965632 -0.06074109
-0.037723307 -0.11097342 -0.16174102 0.012756508 -0.009758423 -0.018014213 0.017512811 0.063127555
-0.048565276 -0.037716478 -0.046124898 -0.11702133 0.033811316 -0.1537744 0.042556766 -0.051479295
-0.036816012 -0.15284991 0.1077432 -0.1537745 -0.14187674 0.10106538 0.07320368 -0.11415691
0.03552694 -0.10924576 -0.19729996 0.07979507 0.067766204 -0.0617549 0.015201422 0.016998934
-0.18757474 -0.0033832255 0.0920381 0.042642556 -0.102771215 0.13276266 -0.10894215 0.08846996
0.03840143 0.009431853 0.11534633 -0.14280282 -0.11239864 -0.053528953 -0.17600293 0.010750725
-0.106770106 -0.049640186 0.04841552 0.09036276 0.097844586 0.06523941 -0.08537628 -0.08911085
0.060511146 -0.021888765 -0.088373184 0.012088066 0.05684543 -0.18082668 -0.062062327 0.31988823
-0.05025138 -0.07284706 -0.08365901 -0.12610346 0.028289603 -0.20746757 0.014215561 0.020213373
-0.017481076 -0.056322 -0.11065968 -0.055961046 0.07127551 -0.0282467 -0.13958882 -0.10582796
0.07750638 -0.08563779 0.023972325 0.11502579 0.11808237 0.002408464 -0.12673481 0.032895118
-0.07772593 0.081455976 0.05863211 0.07441087 0.024608426 -0.021470573 -0.10332835 0.079915404
-0.00017494851 0.035127137 -0.048274476 -0.04719691 -0.11320994 0.013728906 -0.17789948 -0.24774261
0.058255687 -0.14617883 0.006498467 0.07237229 -0.231143 0.042593226 -0.024660738 -0.14222564
-0.02593884 -0.07072675 -0.19918647 0.1752755 -0.046128754 -0.24763875 0.03555331 0.22928052
-0.03468118 -0.02423921 0.13060138 0.039874163 -0.014169019 -0.08643063 0.022538897 -0.024949245
-0.04707493 0.08479429 0.031976867 0.039999288 -0.09945556 -0.06813859 -0.21844453 -0.23633824
0.14541088 -0.006706934 -0.039816186 0.15156445 -0.1261851 -0.062250726 -0.010994055 -0.06018504
0.05126537 0.029350791 -0.19738992 -0.04752667 0.011250898 0.036092475 0.06874532 -0.14082555
0.09706534 -0.00030358817 -0.023732223 -0.106861494 -0.24575417 -0.183467 -0.12577812 0.033746865
-0.033103626 -0.15702543 0.20498674 0.17962667 -0.16738534 0.113167934 0.015758026 0.05156686
0.073900655 -0.0067931227 -0.0034769885 -0.20121965 0.08115944 -0.05471127 0.13670094 -0.0080121765
0.22025888 0.053117547 -0.06245782 0.02537795 0.17129856 0.075718045 -0.10314974 0.08022448
0.096587636 -0.20734486 -0.11529036 0.08812869 0.15418841 0.06479806 -0.013848742 -0.028722093
0.011425954 -0.015526726 -0.2606741 -0.17939658 -0.06653543 0.18906687 0.020002808 -0.042738758
0.015806748 0.1534297 -0.057274498 -0.06932174 0.06802193 0.061148573 -0.06758775 0.023916608
0.11403199 0.03907353 0.082082614 0.05345107 0.0684161 -0.085721664 0.038375225 0.033174574
-0.09719481 0.028786251 0.016424721 -0.14543074 0.13527364 0.026480468 -0.0011395302 -0.06529751
0.15616764 -0.111712605 0.078320496 -0.14255038 0.078034244 0.06715651 -0.058452528 -0.055007193
00000000: 5b22 b73c 0aba 793e 9049 a83d d16a cebc
00000010: 6369 45be 8142 a63c 0e5e 16be c49c 983d
00000020: 6971 fabc c1a0 7a3d 9d72 24bc fbb3 1f3e
00000030: 7db7 2ebe 058c 00be c320 a6be dfc3 b5bd
00000040: 95a7 83bd 71a4 763d 3f63 7dbd 0584 993d
00000050: b663 3ebe d998 ce3d 1a96 f83a a6cb 78bd
00000060: c183 1abd 0846 e3bd 709f 25be ac00 513c
00000070: cbe1 1fbc 8b92 93bc 0777 8f3c 0549 813d
00000080: 62ec 46bd 987c 1abd 76ed 3cbd e1a8 efbd
00000090: bc7d 0a3d 0977 1dbe 0150 2e3d f4db 52bd
000000a0: 63cc 16bd b084 1cbe 78a8 dc3d 1077 1dbe
000000b0: 2348 11be 5efb ce3d d0eb 953d 19cb e9bd
000000c0: b284 113d 3ebc dfbd 0009 4abe 996b a33d
000000d0: 02c9 8a3d b5f2 7cbd 630f 793c 5941 8b3c
000000e0: 9813 40be 1bb9 5dbb 797e bc3d f6a9 2e3d
000000f0: b779 d2bd eff2 073e 101d dfbd bd2f b53d
00000100: d14a 1d3d 0f88 1a3c b23a ec3d e73a 12be
00000110: 4231 e6bd 2d41 5bbd 1d3a 34be cf23 303c
00000120: 49aa dabd 8253 4bbd 5a4f 463d 1c10 b93d
00000130: be62 c83d 3d9c 853d c2d9 aebd c07f b6bd
00000140: 89da 773d 1150 b3bc 00fd b4bd 060d 463c
00000150: c1d6 683d a12a 39be 1135 7ebd 64c8 a33e
00000160: 64d4 4dbd d730 95bd 6a55 abbd 4421 01be
00000170: 99bf e73c 6172 54be 62e8 683c 8496 a53c
00000180: 7934 8fbc e6b1 66bd 8ba1 e2bd 6937 65bd
00000190: e5f8 913d a065 e7bc 5ff0 0ebe 54bc d8bd
000001a0: aabb 9e3d de62 afbd 9c61 c43c a492 eb3d
000001b0: 2bd5 f13d 52d7 1d3b c5c6 01be 08bd 063d
000001c0: c62e 9fbd 64d2 a63d 3928 703d ba64 983d
000001d0: 9c97 c93c 0ee3 afbc d09d d3bd b0aa a33d
000001e0: 6272 37b9 79e1 0f3d 75bb 45bd 8c51 41bd
000001f0: 9dda e7bd 35ef 603c 482b 36be 3db0 7dbe
00000200: 849d 6e3d e7af 15be 18f1 d43b ec37 943d
00000210: c0b0 6cbe 3c76 2e3d 5105 cabc 99a3 11be
00000220: b17d d4bc 30d9 90bd 8af7 4bbe 6c7b 333e
00000230: 81f1 3cbd 0395 7dbe 59a0 113d 83c8 6a3e
00000240: da0d 0ebd 4f91 c6bc 5ebc 053e 1753 233d
00000250: 2c25 68bc 8b02 b1bd 7ea3 b83c 5c62 ccbc
00000260: a4d1 40bd a1a8 ad3d 2dfa 023d 4bd6 233d
00000270: 5baf cbbd 3f8c 8bbd ecaf 5fbe a702 72be
00000280: 97e6 143e d7c5 dbbb 4c16 23bd b633 1b3e
00000290: ab36 01be 9efa 7ebd 6920 34bc 9784 76bd
000002a0: a3fb 513d 1271 f03c 9520 4abe 53ab 42bd
000002b0: b055 383c b4d5 133d 59ca 8c3d 9334 10be
000002c0: 31ca c63d ea2a 9fb9 146a c2bc 33da dabd
000002d0: fba6 7bbe c6de 3bbe fbcb 00be 273a 0a3d
000002e0: ab97 07bd 46cb 20be 0be8 513e 0ef0 373e
000002f0: 1067 2bbe 97c4 e73d fa16 813c c637 533d
00000300: 3a59 973d d898 debb 30de 63bb 860c 4ebe
00000310: ec36 a63d ed18 60bd 55fb 0b3e 8145 03bc
00000320: 8b8b 613e c991 593d c5d3 7fbd 6be5 cf3c
00000330: e468 2f3e 1012 9b3d 2c40 d3bd bb4c a43d
00000340: bdcf c53d 3652 54be 5a1d ecbd d17c b43d
00000350: 91e3 1d3e d8b4 843d d5e5 62bc 984a ebbc
00000360: ed33 3b3c cf63 7ebc 1377 85be bdb3 37be
00000370: ba43 88bd bf9a 413e eedc a33c d60e 2fbd
00000380: 277d 813c ad1c 1d3e aa98 6abd 8ef8 8dbd
00000390: 154f 8b3d ed76 7a3d 726b 8abd c3ec c33c
000003a0: 9b89 e93d 910b 203d ee1a a83d 82ef 5a3d
000003b0: be1d 8c3d d78e afbd 572f 1d3d 10e2 073d
000003c0: 130e c7bd 25d1 eb3c 238d 863c cceb 14be
000003d0: 2c85 0a3e 91ed d83c 4a5c 95ba b3ba 85bd
000003e0: 69ea 1f3e 94c9 e4bd 7f66 a03d baf8 11be
000003f0: 6bd0 9f3d 5a89 893d eb6b 6fbd 394f 61bd

encoder_conv_02.0.bias f4 [32]
0.021638434 0.02561433 -0.014877337 -0.004533219 -0.03999428 0.04388458 0.040371392 -0.065403774
-0.056472275 -0.031055873 -0.03568387 0.048122622 -0.0030129678 0.034690708 0.035662685 0.02429846
-0.05150117 0.04657488 0.040653165 0.016892577 0.04553342 0.029400382 -0.010075211 -0.0073299273
0.03985229 0.032827813 0.024012664 0.035602316 -0.039869033 0.037937608 0.022592653 -0.0037519836
00000000: 1643 b13c 25d5 d13c 13c0 73bc 668b 94bb
00000010: 0bd1 23bd 51c0 333d 795c 253d 6af2 85bd
00000020: 794f 67bd e368 febc 4029 12bd 3a1c 453d
00000030: 3675 45bb d817 0e3d 0913 123d 900d c73c
00000040: e4f2 52bd 4dc5 3e3d ef83 263d 4d62 8a3c
00000050: 4081 3a3d 12d9 f03c 7f12 25bc e32f f0bb
00000060: 283c 233d 7576 063d 35b6 c43c bcd3 113d
00000070: b64d 23bd 7764 1b3d 3a14 b93c d7e3 75bb

encoder_conv_02.1.weight f4 [32]
1.1492615 0.985172 1.029286 1.0522364 1.0892472 1.026573 0.97946143 1.0660588
1.0094259 1.0335624 0.93954825 0.88859826 0.98760855 1.0469649 0.88164705 0.9685941
1.0314213 0.89867276 1.1687651 1.1190902 1.0736842 1.073075 0.73034924 1.131553
1.0297694 1.0462306 0.97135943 1.0868127 0.9598371 0.99392116 1.0896968 1.0374902
00000000: 001b 933f 3b34 7c3f a5bf 833f afaf 863f
00000010: 746c 8b3f be66 833f fcbd 7a3f 9d74 883f
00000020: de34 813f c64b 843f 3c86 703f 2d7b 633f
00000030: ead3 7c3f f202 863f 9fb3 613f c8f5 773f
00000040: 9d05 843f 6b0f 663f 189a 953f 593e 8f3f
00000050: 7c6e 893f 865a 893f 2bf8 3a3f bbd6 903f
00000060: 7ccf 833f e2ea 853f 03ab 783f ae1c 8b3f
00000070: e2b7 753f 9e71 7e3f 2f7b 8b3f 7bcc 843f

encoder_conv_02.1.bias f4 [32]
0.073626935 -0.084770806 -0.102104455 -0.10756772 -0.0602299 -0.1606228 -0.17706574 -0.12634335
-0.1621563 -0.18783312 -0.21007387 -0.25369668 -0.18856135 -0.095776856 -0.45920157 -0.093781196
-0.0628113 -0.3446361 -0.07364915 -0.1170011 -0.11238438 -0.1631003 -0.41384363 -0.0750453
-0.33906895 0.0033755451 -0.0362957 -0.21023421 -0.22671984 -0.15162805 -0.13510007 -0.06966494
00000000: b8c9 963d 519c adbd 241c d1bd 774c dcbd
00000010: a1b3 76bd 4e7a 24be b950 35be 2760 01be
00000020: 4d0c 26be 5357 40be 9b1d 57be 88e4 81be
00000030: 3a16 41be a826 c4bd 781c ebbe 5b10 c0bd
00000040: 36a3 80bd 2574 b0be 5ed5 96bd 469e efbd
00000050: c829 e6bd c403 27be 50e3 d3be 5ab1 99bd
00000060: 729a adbe 4038 5d3b cdaa 14bd a347 57be
00000070: 3f29 68be 6244 1bbe ac57 0abe 7eac 8ebd

encoder_conv_02.1.running_mean f4 [32]
-1.2438442 -0.8622181 -0.85304517 -0.81569767 0.5328155 -0.7758986 -0.20020382 -0.52801895
-1.1678764 -1.0538642 -0.3513962 0.105837844 -0.004940964 -0.9380197 -0.5708968 -0.45389462
-0.6871162 0.09521239 -0.21696061 -0.6407629 -0.86406785 -0.6779094 0.2057485 -0.6911232
0.26299852 -0.06938639 -2.3384647 -0.66762894 -0.6538903 -0.44643852 -0.12625614 -1.0966891
00000000: 4936 9fbf 53ba 5cbf 2b61 5abf 90d1 50bf
00000010: 9966 083f 4aa1 46bf 3b02 4dbe 402c 07bf
00000020: f97c 95bf 06e5 86bf 34ea b3be 83c1 d83d
00000030: cfe7 a1bb 0f22 70bf 4b26 12bf e064 e8be
00000040: d9e6 2fbf b7fe c23d ec2a 5ebe 0a09 24bf
00000050: 8d33 5dbf 788b 2dbf bcaf 523e 73ed 30bf
00000060: bea7 863e 741a 8ebd 68a9 15c0 bbe9 2abf
00000070: 5b65 27bf 9793 e4be 4a49 01be 4f60 8cbf

encoder_conv_02.1.running_var f4 [32]
1.6742898 2.077301 4.297384 1.9330927 1.9197342 2.0982373 2.0045285 1.7778189
2.019966 2.0483456 2.3490222 1.5397016 3.084981 2.0992832 1.7922522 1.6124684
2.8952715 2.1625094 1.8060874 1.9550251 2.127942 2.0017827 2.5986636 2.2263668
2.2706397 1.783735 2.2195978 2.1033747 1.7273302 1.6288053 3.078662 2.2268534
00000000: 214f d63f 80f2 0440 2b84 8940 956f f73f
00000010: dab9 f53f 8549 0640 324a 0040 928f e33f
00000020: 1f47 0140 1818 0340 6156 1640 f114 c53f
00000030: 5470 4540 a85a 0640 8568 e53f 5d65 ce3f
00000040: 214c 3940 8e66 0a40 df2d e73f 433e fa3f
00000050: 3430 0840 351d 0040 8150 2640 cb7c 0e40
00000060: 2952 1140 6e51 e43f e40d 0e40 b19d 0640
00000070: 2819 dd3f b17c d03f cc08 4540 c484 0e40

encoder_conv_10.0.weight f4 [64, 32, 3, 3]
0.007372799 0.033841196 -0.09225926 0.122220896 -0.011560389 0.0594957 0.0030070536 -0.3945833
-0.1981264 -0.036402874 -0.16218309 0.070152506 -0.20936047 0.113047354 0.06783748 0.04079029
-0.03196138 -0.13567765 -0.085837364 0.0881574 0.19776413 0.1203682 -0.014499137 0.03201778
0.03189892 -0.1295597 0.1805713 -0.05469119 0.30509958 -0.15004782 -0.20154352 0.09270026
-0.015572977 0.012729176 -0.058974978 -0.27419096 0.008913427 -0.08738724 -0.0029971816 -0.02168821
0.04443983 -0.07563491 0.061528977 0.07302674 -0.15143532 -0.17214102 0.21424009 0.1460356
-0.048044235 0.15502357 -0.17016259 -0.015255887 0.05191635 -0.010792254 -0.020408487 0.01322705
0.16670176 0.0786509 0.042080462 0.013952997 0.09335434 0.00077758764 -0.23217416 -0.0071741245
0.0022507692 -0.09987284 -0.11171183 -0.14001691 -0.06849795 0.056001205 -0.03446747 -0.09161817
-0.084116265 0.016385427 -0.04198564 -0.03739472 -0.026586592 0.05349223 -0.088560484 0.11574547
-0.02959452 0.11468319 -0.16992547 0.03346869 -0.07617009 0.100637995 0.033942766 -0.009039004
0.20944151 -0.13659793 0.14289902 -0.056280658 0.25057346 0.1312704 -0.09716069 -0.067412324
-0.039811295 0.19992019 -0.043594033 0.12636603 0.031727426 0.09666899 -0.00080819917 0.13390052
0.20066144 0.10607667 0.03802383 -0.13086754 0.13106093 0.09538511 0.07442465 -0.038851146
-0.053004406 -0.06164739 0.12972304 0.09226464 -0.068164036 0.09073799 0.09494178 -0.111041486
-0.054978687 0.12429621 -0.02660032 0.006827422 -0.13568607 -0.059106994 0.003204266 0.006578593
-0.024574628 0.25095713 -0.00018885531 -0.22743295 0.011375428 -0.15023282 -0.0013552584 -0.040260326
0.09343491 0.10365239 -0.0454656 -0.09587941 0.004500701 -0.07198154 0.088623874 0.060530543
0.07492652 -0.06426714 -0.0034978231 -0.08996733 -0.11295663 -0.02732508 0.096577816 0.015871704
-0.056790575 0.05002267 -0.057722125 -0.14299592 0.034325477 -0.06617569 -0.13746274 0.065777645
-0.0015875229 0.060799044 0.10143213 0.10619017 -0.04758431 -0.0264112 -0.09640771 0.25384155
-0.017819064 0.035681766 0.06356907 -0.1356498 -0.13716906 0.0011378622 0.08913923 -0.022200964
0.28673294 -0.11348489 -0.044740945 -0.18587832 0.118161894 -0.15575877 0.0010150989 0.043403823
-0.05711674 0.15293872 -0.16711923 -0.100992106 -0.054585975 -0.021801332 -0.035931196 0.037886478
-0.008850082 0.07362308 -0.075353175 0.18981962 -0.12643327 0.27941835 -0.080762096 -0.06442695
0.005538197 -0.07729706 0.15730028 0.14226465 0.0032976659 -0.06875839 -0.14246523 0.093662746
-0.016659759 0.072484165 -0.008670531 0.10097549 -0.06747716 0.14283313 -0.000948041 -0.10863551
-0.24605064 0.0063689793 -0.0023755494 0.19891997 -0.076910324 -0.05689243 0.10589402 -0.022509148
0.047700707 0.0026257965 0.010753681 -0.044142637 0.065024965 -0.0403302 0.080951706 0.021416882
0.09742392 -0.10196403 -0.03261059 -0.07102839 0.052090064 -0.18070292 0.0421665 -0.035914347
-0.02034481 -0.045146365 0.19234337 -0.017706007 -0.029745305 -0.15839154 0.016792553 -0.002601205
-0.06981121 -0.012990875 -0.020519855 -0.052392777 -0.012599986 0.13219337 -0.018597249 0.16519035
00000000: 8597 f13b 119d 0a3d 6cf2 bcbd f34e fa3d
00000010: c967 3dbc c3b1 733d fd11 453b d306 cabe
00000020: a6e1 4abe 2e1b 15bd 5313 26be 1eac 8f3d
00000030: 9762 56be 5f85 e73d 60ee 8a3d b813 273d
00000040: f0e9 02bd 15ef 0abe 80cb afbd de8b b43d
00000050: ae82 4a3e 9a83 f63d ca8d 6dbc 1325 033d
00000060: 71a8 023d 4cab 04be afe7 383e df03 60bd
00000070: 0336 9c3e 23a6 19be 6d61 4ebe a2d9 bd3d
00000080: cd25 7fbc 098e 503c bf8f 71bd c262 8cbe
00000090: 9f09 123c 15f8 b2bd 5d6c 44bb 79ab b1bc
000000a0: 8a06 363d 7ae6 9abd cf05 7c3d 0b8f 953d
000000b0: dc11 1bbe bc45 30be c161 5b3e 5b8a 153e
000000c0: 08ca 44bd 80be 1e3e 1a3f 2ebe d4f3 79bc
000000d0: 3da6 543d fed1 30bc b32f a7bc 45b6 583c
000000e0: deb3 2a3e b913 a13d 905c 2c3d 1c9b 643c
000000f0: 8f30 bf3d 06d7 4b3a 10bf 6dbe eb14 ebbb
00000100: a481 133b 228a ccbd 2cc9 e4bd 9860 0fbe
00000110: a748 8cbd 8561 653d c32d 0dbd 4fa2 bbbd
00000120: 2645 acbd bb3a 863c 22f9 2bbd 352b 19bd
00000130: 20cc d9bc ab1a 5b3d 335f b5bd f60b ed3d
00000140: 3570 f2bc 05df ea3d f100 2ebe 7716 093d
00000150: 10ff 9bbd 4b1b ce3d 9207 0b3d 5518 14bc
00000160: d677 563e 54e0 0bbe 1f54 123e 8c86 66bd
00000170: 2a4b 803e bf6b 063e 2ffc c6bd 790f 8abd
00000180: 2b11 23bd e1b7 4c3e a88f 32bd 1966 013e
00000190: 9ef4 013d 64fa c53d 54dd 53ba 381d 093e
000001a0: 317a 4d3e ba3e d93d e0be 1b3d 2402 06be
000001b0: d634 063e 4559 c33d f36b 983d 6122 1fbd
000001c0: 261b 59bd f981 7cbd 1ed6 043e 3ef5 bc3d
000001d0: 9699 8bbd d7d4 b93d d670 c23d b869 e3bd
000001e0: 5531 61bd 038f fe3d eae8 d9bc 91b8 df3b
000001f0: 4af1 0abe 2d1a 72bd aafe 513b 3d91 d73b
00000200: bb50 c9bc 747d 803e 7607 46b9 2fe4 68be
00000210: 0160 3a3c a2d6 19be eda2 b1ba 03e8 24bd
00000220: cd5a bf3d b447 d43d 233a 3abd 6d5c c4bd
00000230: 9e7a 933b 0f6b 93bd 6f80 b53d e0ee 773d
00000240: 1373 993d 7e9e 83bd bc3b 65bb cb40 b8bd
00000250: ce55 e7bd d9d8 dfbc 97ca c53d 6005 823c
00000260: 3c9d 68bd 92e4 4c3d 096e 6cbd 866d 12be
00000270: df98 0c3d 1f87 87bd 08c3 0cbe 6eb6 863d
00000280: 6e14 d0ba 6b08 793d a6bb cf3d 3b7a d93d
00000290: c4e7 42bd 4d5c d8bc 6871 c5bd 85f7 813e
000002a0: 49f9 91bc 0b27 123d 8030 823d c8e7 0abe
000002b0: 0c76 0cbe 5224 953a a18e b63d ccde b5bc
000002c0: a9ce 923e c46a e8bd 4842 37bd e356 3ebe
000002d0: ddfe f13d 3a7f 1fbe 110d 853a 35c8 313d
000002e0: 3ef3 69bd f89b 1c3e 4e21 2bbe f3d4 cebd
000002f0: 8b95 5fbd b598 b2bc 972c 13bd da2e 1b3d
00000300: efff 10bc b3c7 963d c452 9abd 1360 423e
00000310: b977 01be ec0f 8f3e 9966 a5bd 47f2 83bd
00000320: c379 b53b ec4d 9ebd 5313 213e d3ad 113e
00000330: a71d 583b 33d1 8cbd 68e2 11be 41d2 bf3d
00000340: 0c7a 88bc 9472 943d d80e 0ebc 3dcc ce3d
00000350: 7731 8abd d942 123e f485 78ba 4b7c debd
00000360: b3f4 7bbe dfb2 d03b 1baf 1bbb adb1 4b3e
00000370: 2983 9dbd 0908 69bd f7de d83d 1b65 b8bc
00000380: d161 433d 8e15 2c3b 3530 303c e9ce 34bd
00000390: cf2b 853d 4831 25bd 02ca a53d 7572 af3c
000003a0: 3186 c73d 84d2 d0bd af92 05bd 5577 91bd
000003b0: 645c 553d 300a 39be c8b6 2c3d ec1a 13bd
000003c0: 29aa a6bc 65eb 38bd a9f5 443e 300c 91bc
000003d0: 6dac f3bc 6431 22be 8990 893c fa78 2abb
000003e0: 2ef9 8ebd aed7 54bc 4119 a8bc cf99 56bd
000003f0: 2c70 4ebc b35d 073e 4259 98bc a927 293e

encoder_conv_10.0.bias f4 [64]
0.0011070766 -0.037060972 0.04966119 -0.049392477 0.0044049574 -0.00088002795 -0.004197337 -0.04687107
-0.015710222 -0.041033313 0.05025115 0.009714335 0.032953996 -0.030540494 -0.047855675 -0.0037005777
0.006002054 0.028987348 -0.0018882469 0.05098746 0.018894704 -0.018132307 -0.035137717 -0.028618624
0.041498385 0.038140986 0.021988504 0.034507092 0.055508703 -0.03471645 0.024542214 0.027147233
0.05597557 0.05523051 -0.030473102 -0.044762492 0.05701361 -0.042860486 -0.054050304 -0.055542693
0.02133142 -0.0147782955 -0.020336192 -0.010527536 0.030550841 0.009026658 -0.019357197 -0.017207826
0.03521026 -0.024645293 0.009509181 0.0033130678 0.020985369 -0.014334286 0.01734687 -0.035148613
-0.04510848 0.052247446 0.0014940933 -0.007072382 0.00929378 0.053979322 -0.040152814 -0.033233542
00000000: 541b 913a 3fcd 17bd 8869 4b3d c44f 4abd
00000010: 7657 903b adb1 66ba d189 89bb e1fb 3fbd
00000020: b9b2 80bc 8c12 28bd 26d4 4d3d e028 1f3c
00000030: c5fa 063d 0f30 fabc 5004 44bd 6485 72bb
00000040: e1ac c43b e076 ed3c 0d7f f7ba 3ad8 503d
00000050: 11c9 9a3c 348a 94bc 91ec 0fbd 9b71 eabc
00000060: 36fa 293d b939 1c3d 3c21 b43c 4f57 0d3d
00000070: 185d 633d d632 0ebd c10c c93c e063 de3c
00000080: a446 653d 6339 623d baa2 f9bc e058 37bd
00000090: 1a87 693d 7a8e 2fbd da63 5dbd bc80 63bd
000000a0: 3bbf ae3c aa20 72bc 1698 a6bc b07b 2cbc
000000b0: c245 fa3c 8ce4 133c fc92 9ebc 6df7 8cbc
000000c0: a238 103d ede4 c9bc 65cc 1b3c 0e20 593b
000000d0: 82e9 ab3c 5ada 6abc 061b 8e3c fef7 0fbd
000000e0: abc3 38bd 6b01 563d 74d5 c33a 71bf e7bb
000000f0: f044 183c 6c19 5d3d 4777 24bd e51f 08bd

encoder_conv_10.1.weight f4 [64]
1.1492507 0.9288626 0.87661225 0.7656616 1.0897944 1.0376596 1.1800917 1.1609787
1.0403166 1.0400414 1.0410756 1.0398147 1.0250908 1.0210954 0.8114095 1.1517661
1.1135751 0.9603681 1.0454199 1.0953661 0.98714197 0.7682115 0.94590896 1.030287
0.9965633 0.92966235 0.90918934 0.93252206 0.9425214 0.94623 1.0627592 1.0442125
0.92312485 1.1110938 0.962105 0.9952155 1.0680794 0.9752185 0.9614619 0.95149815
0.9964933 1.0999893 1.1298848 1.0779761 1.0328122 0.9890483 0.9191013 0.9374291
0.998301 0.8581948 1.0058799 1.0416645 1.0089186 0.9930861 1.0014849 1.0091176
0.9167576 1.0245552 0.9894889 1.0779458 1.0078348 0.9963276 1.0791516 1.0624526
00000000: a61a 933f f0c9 6d3f a969 603f 6602 443f
00000010: 627e 8b3f 08d2 843f 3f0d 973f f39a 943f
00000020: 1829 853f 1420 853f f741 853f a618 853f
00000030: 2d36 833f 41b3 823f 88b8 4f3f 126d 933f
00000040: a189 8e3f afda 753f 52d0 853f f534 8c3f
00000050: 56b5 7c3f 82a9 443f 1727 723f 72e0 833f
00000060: c61e 7f3f 5afe 6d3f a2c0 683f c4b9 6e3f
00000070: 1549 713f 213c 723f 7e08 883f c1a8 853f
00000080: e951 6c3f 5238 8e3f 834c 763f 71c6 7e3f
00000090: d3b6 883f eba7 793f 5e22 763f 6295 733f
000000a0: 2f1a 7f3f 73cc 8c3f 11a0 903f 1ffb 893f
000000b0: 3133 843f 4532 7d3f 394a 6b3f 5afb 6f3f
000000c0: a890 7f3f a8b2 5b3f acc0 803f 4355 853f
000000d0: 3f24 813f e43a 7e3f a830 803f c42a 813f
000000e0: a0b0 6a3f a024 833f 254f 7d3f 21fa 893f
000000f0: bb00 813f 530f 7f3f a421 8a3f 72fe 873f

encoder_conv_10.1.bias f4 [64]
-0.10198143 -0.22071552 -0.32206902 -0.36348736 -0.19323091 -0.14055939 -0.15820101 -0.017920153
-0.04607658 -0.20395976 -0.16737741 -0.11972614 -0.21245997 -0.10922085 -0.26333117 -0.19876881
-0.048882686 -0.23547913 -0.20761408 -0.21982732 -0.3613456 -0.24164067 -0.16348326 -0.33683383
-0.13433461 -0.11860944 -0.3105263 -0.304518 -0.14188296 -0.13113031 -0.14551617 -0.0970379
-0.08189217 -0.030166924 -0.2242678 -0.28758207 -0.22244856 -0.12440353 -0.20770301 -0.23325825
-0.07229893 -0.32164556 -0.1991218 -0.18573733 -0.23153067 -0.10265141 -0.32482293 -0.36029837
-0.18724646 -0.25729293 -0.19887355 -0.20122994 -0.14995012 -0.12318378 -0.0978589 -0.17302103
-0.13285168 -0.1590226 -0.15775245 -0.2080114 -0.14670143 -0.082877554 -0.07431842 -0.06197478
00000000: a4db d0bd 4003 62be 3be6 a4be 041b babe
00000010: 53de 45be cdee 0fbe 72ff 21be 49cd 92bc
00000020: ccba 3cbd d4da 50be fc64 2bbe fa32 f5bd
00000030: 1b8f 59be 2eaf dfbd 58d3 86be 0d8a 4bbe
00000040: 3639 48bd 7121 71be c998 54be 6a1a 61be
00000050: 4a02 b9be a770 77be 2868 27be 7c75 acbe
00000060: 038f 09be 82e9 f2bd 4efd 9ebe c9e9 9bbe
00000070: c449 11be 0647 06be 3102 15be cebb c6bd
00000080: 15b7 a7bd a020 f7bc 75a6 65be f53d 93be
00000090: 8ec9 63be 47c7 febd 19b0 54be 40db 6ebe
000000a0: 7611 94bd baae a4be 96e6 4bbe ed31 3ebe
000000b0: 6016 6dbe e73a d2bd 314f a6be 0779 b8be
000000c0: 89bd 3fbe e6bb 83be 82a5 4bbe 390f 4ebe
000000d0: 868c 19be c747 fcbd 3f6a c8bd 6d2c 31be
000000e0: 450a 08be d2d6 22be dc89 21be f100 55be
000000f0: e638 16be b5bb a9bd 4134 98bd 44d9 7dbd

encoder_conv_10.1.running_mean f4 [64]
-0.33666942 -0.21541525 0.65335095 -0.914769 -0.46354496 -0.13402344 -1.5450873 -1.2263937
-0.39454454 -1.8353477 0.28887153 -0.86858386 -0.2018261 -1.181175 -2.509865 0.6587421
0.3121993 -0.69821906 -0.08511389 0.12750137 0.019752854 -2.831469 -0.34003362 -1.1550292
-1.4501519 -0.077573955 1.1316979 2.0355227 0.3843334 -1.1465443 -0.10265654 -1.0732062
-0.8823271 -0.61472756 -1.6008337 1.1867965 -0.94213843 -0.05702143 0.9623935 -2.2419686
-1.172025 0.2745254 -0.81437254 -1.0160936 1.4495816 0.22352229 -0.8257325 0.6026055
-1.3257463 0.16256933 -0.03834378 0.23414923 -1.9991027 -1.5509192 -0.97073865 0.645007
-1.3287367 1.446417 1.3682607 0.15445274 -0.22269331 1.2267287 -3.0194895 -2.8370888
00000000: ef5f acbe d195 5cbe 0242 273f 4d2e 6abf
00000010: c455 edbe 713d 09be 6cc5 c5bf 78fa 9cbf
00000020: be01 cabe acec eabf f8e6 933e 835b 5ebf
00000030: 80ab 4ebe be30 97bf a1a1 20c0 52a3 283f
00000040: 96d8 9f3e 7cbe 32bf 3150 aebd b88f 023e
00000050: bdd0 a13c ca36 35c0 e318 aebe ffd7 93bf
00000060: 949e b9bf 18df 9ebd 7adb 903f 0146 0240
00000070: 59c7 c43e f7c1 92bf 983d d2bd d25e 89bf
00000080: 30e0 61bf c95e 1dbf 1ee8 ccbf f3e8 973f
00000090: fc2f 71bf 4e8f 69bd 6c5f 763f 6a7c 0fc0
000000a0: ea04 96bf 988e 8c3e b87a 50bf 5b0f 82bf
000000b0: e48b b93f 07e3 643e 3563 53bf 5b44 1a3f
000000c0: 0eb2 a9bf 9378 263e 5e0e 1dbd d1c4 6f3e
000000d0: 99e2 ffbf 8584 c6bf 5482 78bf 2e1f 253f
000000e0: 0b14 aabf 3124 b93f 2b23 af3f dc28 1e3e
000000f0: b709 64be 7205 9d3f 513f 41c0 dd92 35c0

encoder_conv_10.1.running_var f4 [64]
1.8752611 2.2623632 2.287593 1.988878 1.909352 3.2222536 2.3830428 2.5858326
2.4311259 2.97682 1.6901399 2.9446025 2.5116494 2.5898414 2.7121618 1.7660515
2.0616665 2.280232 1.503575 2.187777 2.4271004 5.4209027 2.0060518 2.8074358
2.4612095 2.1428895 1.9241623 2.4935014 3.611722 2.1165333 2.9352071 2.7960331
3.5143507 2.514501 1.8872879 2.1766555 2.0398552 2.0427115 2.5967753 2.9419396
2.1597052 1.9136769 2.6849992 2.4457338 2.0461261 2.4768264 2.654286 1.8340709
2.4569223 1.8869643 2.120815 2.3115435 4.0483117 1.9581432 3.5538523 3.2410436
1.9716576 2.012801 1.9386048 1.7026404 2.0145643 2.321363 2.9480765 2.6091537
00000000: 8e08 f03f 8fca 1040 ec67 1240 8e93 fe3f
00000010: a565 f43f 6739 4e40 c683 1840 487e 2540
00000020: 9197 1b40 3884 3e40 8156 d83f 5e74 3c40
00000030: ddbe 2040 f6bf 2540 0f94 2d40 fa0d e23f
00000040: 58f2 0340 52ef 1140 2575 c03f 8a04 0c40
00000050: 9d55 1b40 0978 ad40 2763 0040 07ad 3340
00000060: 7584 1d40 1a25 0940 f34a f63f 8795 1f40
00000070: 7426 6740 4875 0740 6fda 3b40 35f2 3240
00000080: 1feb 6040 96ed 2040 a692 f13f 534e 0b40
00000090: fd8c 0240 c9bb 0240 9131 2640 bd48 3c40
000000a0: 9c38 0a40 5df3 f43f 07d7 2b40 e786 1c40
000000b0: bbf3 0240 5384 1e40 d2df 2940 d6c2 ea3f
000000c0: 373e 1d40 0c88 f13f 6fbb 0740 54f0 1340
000000d0: c58b 8140 70a4 fa3f 5172 6340 426d 4f40
000000e0: 475f fc3f bbd1 0040 3424 f83f 1ff0 d93f
000000f0: 9fee 0040 3691 1440 49ad 3c40 60fc 2640
